{"format": "graph-model", "generatedBy": "2.19.0", "convertedBy": "TensorFlow.js Converter v4.22.0", "signature": {"inputs": {"images": {"name": "images:0", "dtype": "DT_FLOAT", "tensorShape": {"dim": [{"size": "1"}, {"size": "640"}, {"size": "640"}, {"size": "3"}]}}}, "outputs": {"output_0": {"name": "Identity:0", "dtype": "DT_FLOAT", "tensorShape": {"dim": [{"size": "100"}, {"size": "7"}]}}}}, "modelTopology": {"node": [{"name": "PartitionedCall/model_263/tf.reshape_259/Reshape/shape", "op": "Const", "attr": {"dtype": {"type": "DT_INT32"}, "value": {"tensor": {"dtype": "DT_INT32", "tensorShape": {"dim": [{"size": "2"}]}}}}}, {"name": "PartitionedCall/model_263/tf.reshape_256/Reshape/shape", "op": "Const", "attr": {"value": {"tensor": {"dtype": "DT_INT32", "tensorShape": {"dim": [{"size": "2"}]}}}, "dtype": {"type": "DT_INT32"}}}, {"name": "PartitionedCall/model_263/tf.math.less/Less/y", "op": "Const", "attr": {"value": {"tensor": {"dtype": "DT_INT64", "tensorShape": {}}}, "dtype": {"type": "DT_INT64"}}}, {"name": "PartitionedCall/model_263/tf.__operators__.getitem_3/strided_slice", "op": "Const", "attr": {"dtype": {"type": "DT_INT64"}, "value": {"tensor": {"dtype": "DT_INT64", "tensorShape": {}}}}}, {"name": "PartitionedCall/model_263/tf.compat.v1.gather_2/GatherV2/axis", "op": "Const", "attr": {"dtype": {"type": "DT_INT32"}, "value": {"tensor": {"dtype": "DT_INT32", "tensorShape": {}}}}}, {"name": "PartitionedCall/model_263/tf.reshape_257/Reshape/shape", "op": "Const", "attr": {"dtype": {"type": "DT_INT32"}, "value": {"tensor": {"dtype": "DT_INT32", "tensorShape": {"dim": [{"size": "2"}]}}}}}, {"name": "PartitionedCall/model_263/tf.math.less_1/Less/y", "op": "Const", "attr": {"value": {"tensor": {"dtype": "DT_INT64", "tensorShape": {}}}, "dtype": {"type": "DT_INT64"}}}, {"name": "PartitionedCall/model_263/tf.__operators__.getitem_4/strided_slice", "op": "Const", "attr": {"dtype": {"type": "DT_INT64"}, "value": {"tensor": {"dtype": "DT_INT64", "tensorShape": {}}}}}, {"name": "PartitionedCall/model_263/tf.compat.v1.gather_3/GatherV2/axis", "op": "Const", "attr": {"value": {"tensor": {"dtype": "DT_INT32", "tensorShape": {}}}, "dtype": {"type": "DT_INT32"}}}, {"name": "PartitionedCall/model_263/tf.reshape_258/Reshape/shape", "op": "Const", "attr": {"dtype": {"type": "DT_INT32"}, "value": {"tensor": {"dtype": "DT_INT32", "tensorShape": {"dim": [{"size": "2"}]}}}}}, {"name": "PartitionedCall/model_263/tf.compat.v1.gather_1/GatherV2/indices", "op": "Const", "attr": {"value": {"tensor": {"dtype": "DT_INT32", "tensorShape": {}}}, "dtype": {"type": "DT_INT32"}}}, {"name": "PartitionedCall/model_263/tf.compat.v1.gather_1/GatherV2/axis", "op": "Const", "attr": {"value": {"tensor": {"dtype": "DT_INT32", "tensorShape": {}}}, "dtype": {"type": "DT_INT32"}}}, {"name": "unknown_129", "op": "Const", "attr": {"dtype": {"type": "DT_INT64"}, "value": {"tensor": {"dtype": "DT_INT64", "tensorShape": {"dim": [{"size": "3"}]}}}}}, {"name": "unknown_130", "op": "Const", "attr": {"dtype": {"type": "DT_INT64"}, "value": {"tensor": {"dtype": "DT_INT64", "tensorShape": {"dim": [{"size": "3"}]}}}}}, {"name": "PartitionedCall/model_263/tf.strided_slice/StridedSlice/strides", "op": "Const", "attr": {"value": {"tensor": {"dtype": "DT_INT64", "tensorShape": {"dim": [{"size": "3"}]}}}, "dtype": {"type": "DT_INT64"}}}, {"name": "unknown_131", "op": "Const", "attr": {"value": {"tensor": {"dtype": "DT_FLOAT", "tensorShape": {"dim": [{"size": "4"}, {"size": "4"}]}}}, "dtype": {"type": "DT_FLOAT"}}}, {"name": "PartitionedCall/model_263/tf.math.argmax/ArgMax/dimension", "op": "Const", "attr": {"value": {"tensor": {"dtype": "DT_INT32", "tensorShape": {}}}, "dtype": {"type": "DT_INT32"}}}, {"name": "PartitionedCall/model_263/tf.expand_dims/ExpandDims/dim", "op": "Const", "attr": {"dtype": {"type": "DT_INT32"}, "value": {"tensor": {"dtype": "DT_INT32", "tensorShape": {}}}}}, {"name": "PartitionedCall/model_263/tf.math.multiply_30/Mul/y", "op": "Const", "attr": {"dtype": {"type": "DT_FLOAT"}, "value": {"tensor": {"dtype": "DT_FLOAT", "tensorShape": {}}}}}, {"name": "unknown_125", "op": "Const", "attr": {"value": {"tensor": {"dtype": "DT_INT64", "tensorShape": {"dim": [{"size": "3"}]}}}, "dtype": {"type": "DT_INT64"}}}, {"name": "unknown_126", "op": "Const", "attr": {"value": {"tensor": {"dtype": "DT_INT64", "tensorShape": {"dim": [{"size": "3"}]}}}, "dtype": {"type": "DT_INT64"}}}, {"name": "PartitionedCall/model_263/tf.strided_slice_2/StridedSlice/strides", "op": "Const", "attr": {"dtype": {"type": "DT_INT64"}, "value": {"tensor": {"dtype": "DT_INT64", "tensorShape": {"dim": [{"size": "3"}]}}}}}, {"name": "PartitionedCall/model_263/tf.math.multiply_2/Mul/y", "op": "Const", "attr": {"value": {"tensor": {"dtype": "DT_FLOAT", "tensorShape": {}}}, "dtype": {"type": "DT_FLOAT"}}}, {"name": "unknown_123", "op": "Const", "attr": {"dtype": {"type": "DT_FLOAT"}, "value": {"tensor": {"dtype": "DT_FLOAT", "tensorShape": {"dim": [{"size": "1"}, {"size": "1"}, {"size": "80"}, {"size": "80"}, {"size": "2"}]}}}}}, {"name": "unknown_124", "op": "Const", "attr": {"dtype": {"type": "DT_FLOAT"}, "value": {"tensor": {"dtype": "DT_FLOAT", "tensorShape": {"dim": [{"size": "1"}, {"size": "3"}, {"size": "1"}, {"size": "1"}, {"size": "2"}]}}}}}, {"name": "unknown_109", "op": "Const", "attr": {"value": {"tensor": {"dtype": "DT_FLOAT", "tensorShape": {"dim": [{"size": "3"}, {"size": "3"}, {"size": "64"}, {"size": "128"}]}}}, "dtype": {"type": "DT_FLOAT"}}}, {"name": "unknown_112", "op": "Const", "attr": {"value": {"tensor": {"dtype": "DT_FLOAT", "tensorShape": {"dim": [{"size": "128"}]}}}, "dtype": {"type": "DT_FLOAT"}}}, {"name": "unknown_115", "op": "Const", "attr": {"dtype": {"type": "DT_FLOAT"}, "value": {"tensor": {"dtype": "DT_FLOAT", "tensorShape": {"dim": [{"size": "1"}, {"size": "1"}, {"size": "128"}, {"size": "255"}]}}}}}, {"name": "unknown_118", "op": "Const", "attr": {"dtype": {"type": "DT_FLOAT"}, "value": {"tensor": {"dtype": "DT_FLOAT", "tensorShape": {"dim": [{"size": "255"}]}}}}}, {"name": "PartitionedCall/model_263/tf.compat.v1.transpose_2/transpose/perm", "op": "Const", "attr": {"dtype": {"type": "DT_INT32"}, "value": {"tensor": {"dtype": "DT_INT32", "tensorShape": {"dim": [{"size": "4"}]}}}}}, {"name": "PartitionedCall/model_263/tf.reshape_2/Reshape/shape", "op": "Const", "attr": {"value": {"tensor": {"dtype": "DT_INT32", "tensorShape": {"dim": [{"size": "5"}]}}}, "dtype": {"type": "DT_INT32"}}}, {"name": "PartitionedCall/model_263/tf.compat.v1.transpose_5/transpose/perm", "op": "Const", "attr": {"value": {"tensor": {"dtype": "DT_INT32", "tensorShape": {"dim": [{"size": "5"}]}}}, "dtype": {"type": "DT_INT32"}}}, {"name": "PartitionedCall/model_263/tf.split/Const", "op": "Const", "attr": {"dtype": {"type": "DT_INT32"}, "value": {"tensor": {"dtype": "DT_INT32", "tensorShape": {"dim": [{"size": "3"}]}}}}}, {"name": "PartitionedCall/model_263/tf.split/split/split_dim", "op": "Const", "attr": {"value": {"tensor": {"dtype": "DT_INT32", "tensorShape": {}}}, "dtype": {"type": "DT_INT32"}}}, {"name": "PartitionedCall/model_263/tf.concat_12/concat/axis", "op": "Const", "attr": {"dtype": {"type": "DT_INT32"}, "value": {"tensor": {"dtype": "DT_INT32", "tensorShape": {}}}}}, {"name": "PartitionedCall/model_263/tf.reshape_5/Reshape/shape", "op": "Const", "attr": {"dtype": {"type": "DT_INT32"}, "value": {"tensor": {"dtype": "DT_INT32", "tensorShape": {"dim": [{"size": "3"}]}}}}}, {"name": "PartitionedCall/model_263/tf.math.multiply_10/Mul/y", "op": "Const", "attr": {"dtype": {"type": "DT_FLOAT"}, "value": {"tensor": {"dtype": "DT_FLOAT", "tensorShape": {}}}}}, {"name": "unknown_121", "op": "Const", "attr": {"dtype": {"type": "DT_FLOAT"}, "value": {"tensor": {"dtype": "DT_FLOAT", "tensorShape": {"dim": [{"size": "1"}, {"size": "1"}, {"size": "40"}, {"size": "40"}, {"size": "2"}]}}}}}, {"name": "unknown_122", "op": "Const", "attr": {"dtype": {"type": "DT_FLOAT"}, "value": {"tensor": {"dtype": "DT_FLOAT", "tensorShape": {"dim": [{"size": "1"}, {"size": "3"}, {"size": "1"}, {"size": "1"}, {"size": "2"}]}}}}}, {"name": "unknown_108", "op": "Const", "attr": {"value": {"tensor": {"dtype": "DT_FLOAT", "tensorShape": {"dim": [{"size": "3"}, {"size": "3"}, {"size": "128"}, {"size": "256"}]}}}, "dtype": {"type": "DT_FLOAT"}}}, {"name": "unknown_111", "op": "Const", "attr": {"value": {"tensor": {"dtype": "DT_FLOAT", "tensorShape": {"dim": [{"size": "256"}]}}}, "dtype": {"type": "DT_FLOAT"}}}, {"name": "unknown_114", "op": "Const", "attr": {"dtype": {"type": "DT_FLOAT"}, "value": {"tensor": {"dtype": "DT_FLOAT", "tensorShape": {"dim": [{"size": "1"}, {"size": "1"}, {"size": "256"}, {"size": "255"}]}}}}}, {"name": "unknown_117", "op": "Const", "attr": {"dtype": {"type": "DT_FLOAT"}, "value": {"tensor": {"dtype": "DT_FLOAT", "tensorShape": {"dim": [{"size": "255"}]}}}}}, {"name": "PartitionedCall/model_263/tf.compat.v1.transpose_15/transpose/perm", "op": "Const", "attr": {"dtype": {"type": "DT_INT32"}, "value": {"tensor": {"dtype": "DT_INT32", "tensorShape": {"dim": [{"size": "4"}]}}}}}, {"name": "PartitionedCall/model_263/tf.reshape_8/Reshape/shape", "op": "Const", "attr": {"dtype": {"type": "DT_INT32"}, "value": {"tensor": {"dtype": "DT_INT32", "tensorShape": {"dim": [{"size": "5"}]}}}}}, {"name": "PartitionedCall/model_263/tf.compat.v1.transpose_18/transpose/perm", "op": "Const", "attr": {"dtype": {"type": "DT_INT32"}, "value": {"tensor": {"dtype": "DT_INT32", "tensorShape": {"dim": [{"size": "5"}]}}}}}, {"name": "PartitionedCall/model_263/tf.split_1/Const", "op": "Const", "attr": {"dtype": {"type": "DT_INT32"}, "value": {"tensor": {"dtype": "DT_INT32", "tensorShape": {"dim": [{"size": "3"}]}}}}}, {"name": "PartitionedCall/model_263/tf.split_1/split/split_dim", "op": "Const", "attr": {"dtype": {"type": "DT_INT32"}, "value": {"tensor": {"dtype": "DT_INT32", "tensorShape": {}}}}}, {"name": "PartitionedCall/model_263/tf.concat_15/concat/axis", "op": "Const", "attr": {"value": {"tensor": {"dtype": "DT_INT32", "tensorShape": {}}}, "dtype": {"type": "DT_INT32"}}}, {"name": "PartitionedCall/model_263/tf.reshape_130/Reshape/shape", "op": "Const", "attr": {"dtype": {"type": "DT_INT32"}, "value": {"tensor": {"dtype": "DT_INT32", "tensorShape": {"dim": [{"size": "3"}]}}}}}, {"name": "PartitionedCall/model_263/tf.math.multiply_18/Mul/y", "op": "Const", "attr": {"dtype": {"type": "DT_FLOAT"}, "value": {"tensor": {"dtype": "DT_FLOAT", "tensorShape": {}}}}}, {"name": "unknown_119", "op": "Const", "attr": {"dtype": {"type": "DT_FLOAT"}, "value": {"tensor": {"dtype": "DT_FLOAT", "tensorShape": {"dim": [{"size": "1"}, {"size": "1"}, {"size": "20"}, {"size": "20"}, {"size": "2"}]}}}}}, {"name": "unknown_120", "op": "Const", "attr": {"dtype": {"type": "DT_FLOAT"}, "value": {"tensor": {"dtype": "DT_FLOAT", "tensorShape": {"dim": [{"size": "1"}, {"size": "3"}, {"size": "1"}, {"size": "1"}, {"size": "2"}]}}}}}, {"name": "unknown_102", "op": "Const", "attr": {"dtype": {"type": "DT_FLOAT"}, "value": {"tensor": {"dtype": "DT_FLOAT", "tensorShape": {"dim": [{"size": "3"}, {"size": "3"}, {"size": "128"}, {"size": "128"}]}}}}}, {"name": "unknown_104", "op": "Const", "attr": {"dtype": {"type": "DT_FLOAT"}, "value": {"tensor": {"dtype": "DT_FLOAT", "tensorShape": {"dim": [{"size": "128"}]}}}}}, {"name": "unknown_99", "op": "Const", "attr": {"value": {"tensor": {"dtype": "DT_FLOAT", "tensorShape": {"dim": [{"size": "3"}, {"size": "3"}, {"size": "128"}, {"size": "128"}]}}}, "dtype": {"type": "DT_FLOAT"}}}, {"name": "unknown_100", "op": "Const", "attr": {"value": {"tensor": {"dtype": "DT_FLOAT", "tensorShape": {"dim": [{"size": "128"}]}}}, "dtype": {"type": "DT_FLOAT"}}}, {"name": "unknown_97", "op": "Const", "attr": {"dtype": {"type": "DT_FLOAT"}, "value": {"tensor": {"dtype": "DT_FLOAT", "tensorShape": {"dim": [{"size": "1"}, {"size": "1"}, {"size": "512"}, {"size": "128"}]}}}}}, {"name": "unknown_98", "op": "Const", "attr": {"dtype": {"type": "DT_FLOAT"}, "value": {"tensor": {"dtype": "DT_FLOAT", "tensorShape": {"dim": [{"size": "128"}]}}}}}, {"name": "unknown_89", "op": "Const", "attr": {"dtype": {"type": "DT_FLOAT"}, "value": {"tensor": {"dtype": "DT_FLOAT", "tensorShape": {"dim": [{"size": "3"}, {"size": "3"}, {"size": "64"}, {"size": "64"}]}}}}}, {"name": "unknown_91", "op": "Const", "attr": {"dtype": {"type": "DT_FLOAT"}, "value": {"tensor": {"dtype": "DT_FLOAT", "tensorShape": {"dim": [{"size": "64"}]}}}}}, {"name": "unknown_86", "op": "Const", "attr": {"value": {"tensor": {"dtype": "DT_FLOAT", "tensorShape": {"dim": [{"size": "3"}, {"size": "3"}, {"size": "64"}, {"size": "64"}]}}}, "dtype": {"type": "DT_FLOAT"}}}, {"name": "unknown_87", "op": "Const", "attr": {"value": {"tensor": {"dtype": "DT_FLOAT", "tensorShape": {"dim": [{"size": "64"}]}}}, "dtype": {"type": "DT_FLOAT"}}}, {"name": "unknown_84", "op": "Const", "attr": {"dtype": {"type": "DT_FLOAT"}, "value": {"tensor": {"dtype": "DT_FLOAT", "tensorShape": {"dim": [{"size": "1"}, {"size": "1"}, {"size": "256"}, {"size": "64"}]}}}}}, {"name": "unknown_85", "op": "Const", "attr": {"dtype": {"type": "DT_FLOAT"}, "value": {"tensor": {"dtype": "DT_FLOAT", "tensorShape": {"dim": [{"size": "64"}]}}}}}, {"name": "unknown_76", "op": "Const", "attr": {"value": {"tensor": {"dtype": "DT_FLOAT", "tensorShape": {"dim": [{"size": "3"}, {"size": "3"}, {"size": "32"}, {"size": "32"}]}}}, "dtype": {"type": "DT_FLOAT"}}}, {"name": "unknown_78", "op": "Const", "attr": {"dtype": {"type": "DT_FLOAT"}, "value": {"tensor": {"dtype": "DT_FLOAT", "tensorShape": {"dim": [{"size": "32"}]}}}}}, {"name": "unknown_73", "op": "Const", "attr": {"dtype": {"type": "DT_FLOAT"}, "value": {"tensor": {"dtype": "DT_FLOAT", "tensorShape": {"dim": [{"size": "3"}, {"size": "3"}, {"size": "32"}, {"size": "32"}]}}}}}, {"name": "unknown_74", "op": "Const", "attr": {"value": {"tensor": {"dtype": "DT_FLOAT", "tensorShape": {"dim": [{"size": "32"}]}}}, "dtype": {"type": "DT_FLOAT"}}}, {"name": "unknown_71", "op": "Const", "attr": {"dtype": {"type": "DT_FLOAT"}, "value": {"tensor": {"dtype": "DT_FLOAT", "tensorShape": {"dim": [{"size": "1"}, {"size": "1"}, {"size": "128"}, {"size": "32"}]}}}}}, {"name": "unknown_72", "op": "Const", "attr": {"dtype": {"type": "DT_FLOAT"}, "value": {"tensor": {"dtype": "DT_FLOAT", "tensorShape": {"dim": [{"size": "32"}]}}}}}, {"name": "unknown_69", "op": "Const", "attr": {"value": {"tensor": {"dtype": "DT_FLOAT", "tensorShape": {"dim": [{"size": "1"}, {"size": "1"}, {"size": "128"}, {"size": "64"}]}}}, "dtype": {"type": "DT_FLOAT"}}}, {"name": "unknown_70", "op": "Const", "attr": {"value": {"tensor": {"dtype": "DT_FLOAT", "tensorShape": {"dim": [{"size": "64"}]}}}, "dtype": {"type": "DT_FLOAT"}}}, {"name": "unknown_67", "op": "Const", "attr": {"value": {"tensor": {"dtype": "DT_FLOAT", "tensorShape": {"dim": [{"size": "1"}, {"size": "1"}, {"size": "128"}, {"size": "64"}]}}}, "dtype": {"type": "DT_FLOAT"}}}, {"name": "unknown_68", "op": "Const", "attr": {"dtype": {"type": "DT_FLOAT"}, "value": {"tensor": {"dtype": "DT_FLOAT", "tensorShape": {"dim": [{"size": "64"}]}}}}}, {"name": "PartitionedCall/model_263/tf.compat.v1.image.resize_nearest_neighbor_1/ResizeNearestNeighbor/size", "op": "Const", "attr": {"value": {"tensor": {"dtype": "DT_INT32", "tensorShape": {"dim": [{"size": "2"}]}}}, "dtype": {"type": "DT_INT32"}}}, {"name": "PartitionedCall/model_263/tf.concat_8/concat/axis", "op": "Const", "attr": {"value": {"tensor": {"dtype": "DT_INT32", "tensorShape": {}}}, "dtype": {"type": "DT_INT32"}}}, {"name": "unknown_75", "op": "Const", "attr": {"dtype": {"type": "DT_FLOAT"}, "value": {"tensor": {"dtype": "DT_FLOAT", "tensorShape": {"dim": [{"size": "1"}, {"size": "1"}, {"size": "128"}, {"size": "32"}]}}}}}, {"name": "unknown_77", "op": "Const", "attr": {"value": {"tensor": {"dtype": "DT_FLOAT", "tensorShape": {"dim": [{"size": "32"}]}}}, "dtype": {"type": "DT_FLOAT"}}}, {"name": "PartitionedCall/model_263/tf.concat_9/concat/axis", "op": "Const", "attr": {"value": {"tensor": {"dtype": "DT_INT32", "tensorShape": {}}}, "dtype": {"type": "DT_INT32"}}}, {"name": "unknown_79", "op": "Const", "attr": {"value": {"tensor": {"dtype": "DT_FLOAT", "tensorShape": {"dim": [{"size": "1"}, {"size": "1"}, {"size": "128"}, {"size": "64"}]}}}, "dtype": {"type": "DT_FLOAT"}}}, {"name": "unknown_80", "op": "Const", "attr": {"dtype": {"type": "DT_FLOAT"}, "value": {"tensor": {"dtype": "DT_FLOAT", "tensorShape": {"dim": [{"size": "64"}]}}}}}, {"name": "unknown_81", "op": "Const", "attr": {"value": {"tensor": {"dtype": "DT_INT32", "tensorShape": {"dim": [{"size": "4"}, {"size": "2"}]}}}, "dtype": {"type": "DT_INT32"}}}, {"name": "unknown_82", "op": "Const", "attr": {"value": {"tensor": {"dtype": "DT_FLOAT", "tensorShape": {"dim": [{"size": "3"}, {"size": "3"}, {"size": "64"}, {"size": "128"}]}}}, "dtype": {"type": "DT_FLOAT"}}}, {"name": "unknown_83", "op": "Const", "attr": {"value": {"tensor": {"dtype": "DT_FLOAT", "tensorShape": {"dim": [{"size": "128"}]}}}, "dtype": {"type": "DT_FLOAT"}}}, {"name": "unknown_62", "op": "Const", "attr": {"dtype": {"type": "DT_FLOAT"}, "value": {"tensor": {"dtype": "DT_FLOAT", "tensorShape": {"dim": [{"size": "3"}, {"size": "3"}, {"size": "64"}, {"size": "64"}]}}}}}, {"name": "unknown_64", "op": "Const", "attr": {"dtype": {"type": "DT_FLOAT"}, "value": {"tensor": {"dtype": "DT_FLOAT", "tensorShape": {"dim": [{"size": "64"}]}}}}}, {"name": "unknown_59", "op": "Const", "attr": {"dtype": {"type": "DT_FLOAT"}, "value": {"tensor": {"dtype": "DT_FLOAT", "tensorShape": {"dim": [{"size": "3"}, {"size": "3"}, {"size": "64"}, {"size": "64"}]}}}}}, {"name": "unknown_60", "op": "Const", "attr": {"dtype": {"type": "DT_FLOAT"}, "value": {"tensor": {"dtype": "DT_FLOAT", "tensorShape": {"dim": [{"size": "64"}]}}}}}, {"name": "unknown_57", "op": "Const", "attr": {"dtype": {"type": "DT_FLOAT"}, "value": {"tensor": {"dtype": "DT_FLOAT", "tensorShape": {"dim": [{"size": "1"}, {"size": "1"}, {"size": "256"}, {"size": "64"}]}}}}}, {"name": "unknown_58", "op": "Const", "attr": {"dtype": {"type": "DT_FLOAT"}, "value": {"tensor": {"dtype": "DT_FLOAT", "tensorShape": {"dim": [{"size": "64"}]}}}}}, {"name": "unknown_55", "op": "Const", "attr": {"dtype": {"type": "DT_FLOAT"}, "value": {"tensor": {"dtype": "DT_FLOAT", "tensorShape": {"dim": [{"size": "1"}, {"size": "1"}, {"size": "256"}, {"size": "128"}]}}}}}, {"name": "unknown_56", "op": "Const", "attr": {"value": {"tensor": {"dtype": "DT_FLOAT", "tensorShape": {"dim": [{"size": "128"}]}}}, "dtype": {"type": "DT_FLOAT"}}}, {"name": "unknown_53", "op": "Const", "attr": {"dtype": {"type": "DT_FLOAT"}, "value": {"tensor": {"dtype": "DT_FLOAT", "tensorShape": {"dim": [{"size": "1"}, {"size": "1"}, {"size": "256"}, {"size": "128"}]}}}}}, {"name": "unknown_54", "op": "Const", "attr": {"dtype": {"type": "DT_FLOAT"}, "value": {"tensor": {"dtype": "DT_FLOAT", "tensorShape": {"dim": [{"size": "128"}]}}}}}, {"name": "PartitionedCall/model_263/tf.compat.v1.image.resize_nearest_neighbor/ResizeNearestNeighbor/size", "op": "Const", "attr": {"dtype": {"type": "DT_INT32"}, "value": {"tensor": {"dtype": "DT_INT32", "tensorShape": {"dim": [{"size": "2"}]}}}}}, {"name": "PartitionedCall/model_263/tf.concat_6/concat/axis", "op": "Const", "attr": {"dtype": {"type": "DT_INT32"}, "value": {"tensor": {"dtype": "DT_INT32", "tensorShape": {}}}}}, {"name": "unknown_61", "op": "Const", "attr": {"dtype": {"type": "DT_FLOAT"}, "value": {"tensor": {"dtype": "DT_FLOAT", "tensorShape": {"dim": [{"size": "1"}, {"size": "1"}, {"size": "256"}, {"size": "64"}]}}}}}, {"name": "unknown_63", "op": "Const", "attr": {"dtype": {"type": "DT_FLOAT"}, "value": {"tensor": {"dtype": "DT_FLOAT", "tensorShape": {"dim": [{"size": "64"}]}}}}}, {"name": "PartitionedCall/model_263/tf.concat_7/concat/axis", "op": "Const", "attr": {"value": {"tensor": {"dtype": "DT_INT32", "tensorShape": {}}}, "dtype": {"type": "DT_INT32"}}}, {"name": "unknown_65", "op": "Const", "attr": {"dtype": {"type": "DT_FLOAT"}, "value": {"tensor": {"dtype": "DT_FLOAT", "tensorShape": {"dim": [{"size": "1"}, {"size": "1"}, {"size": "256"}, {"size": "128"}]}}}}}, {"name": "unknown_66", "op": "Const", "attr": {"value": {"tensor": {"dtype": "DT_FLOAT", "tensorShape": {"dim": [{"size": "128"}]}}}, "dtype": {"type": "DT_FLOAT"}}}, {"name": "PartitionedCall/model_263/tf.concat_10/concat/axis", "op": "Const", "attr": {"dtype": {"type": "DT_INT32"}, "value": {"tensor": {"dtype": "DT_INT32", "tensorShape": {}}}}}, {"name": "unknown_88", "op": "Const", "attr": {"dtype": {"type": "DT_FLOAT"}, "value": {"tensor": {"dtype": "DT_FLOAT", "tensorShape": {"dim": [{"size": "1"}, {"size": "1"}, {"size": "256"}, {"size": "64"}]}}}}}, {"name": "unknown_90", "op": "Const", "attr": {"value": {"tensor": {"dtype": "DT_FLOAT", "tensorShape": {"dim": [{"size": "64"}]}}}, "dtype": {"type": "DT_FLOAT"}}}, {"name": "PartitionedCall/model_263/tf.concat_11/concat/axis", "op": "Const", "attr": {"dtype": {"type": "DT_INT32"}, "value": {"tensor": {"dtype": "DT_INT32", "tensorShape": {}}}}}, {"name": "unknown_92", "op": "Const", "attr": {"value": {"tensor": {"dtype": "DT_FLOAT", "tensorShape": {"dim": [{"size": "1"}, {"size": "1"}, {"size": "256"}, {"size": "128"}]}}}, "dtype": {"type": "DT_FLOAT"}}}, {"name": "unknown_93", "op": "Const", "attr": {"dtype": {"type": "DT_FLOAT"}, "value": {"tensor": {"dtype": "DT_FLOAT", "tensorShape": {"dim": [{"size": "128"}]}}}}}, {"name": "unknown_94", "op": "Const", "attr": {"dtype": {"type": "DT_INT32"}, "value": {"tensor": {"dtype": "DT_INT32", "tensorShape": {"dim": [{"size": "4"}, {"size": "2"}]}}}}}, {"name": "unknown_95", "op": "Const", "attr": {"value": {"tensor": {"dtype": "DT_FLOAT", "tensorShape": {"dim": [{"size": "3"}, {"size": "3"}, {"size": "128"}, {"size": "256"}]}}}, "dtype": {"type": "DT_FLOAT"}}}, {"name": "unknown_96", "op": "Const", "attr": {"dtype": {"type": "DT_FLOAT"}, "value": {"tensor": {"dtype": "DT_FLOAT", "tensorShape": {"dim": [{"size": "256"}]}}}}}, {"name": "unknown_45", "op": "Const", "attr": {"value": {"tensor": {"dtype": "DT_FLOAT", "tensorShape": {"dim": [{"size": "1"}, {"size": "1"}, {"size": "512"}, {"size": "256"}]}}}, "dtype": {"type": "DT_FLOAT"}}}, {"name": "unknown_46", "op": "Const", "attr": {"value": {"tensor": {"dtype": "DT_FLOAT", "tensorShape": {"dim": [{"size": "256"}]}}}, "dtype": {"type": "DT_FLOAT"}}}, {"name": "PartitionedCall/model_263/tf.concat_4/concat/axis", "op": "Const", "attr": {"value": {"tensor": {"dtype": "DT_INT32", "tensorShape": {}}}, "dtype": {"type": "DT_INT32"}}}, {"name": "unknown_48", "op": "Const", "attr": {"dtype": {"type": "DT_FLOAT"}, "value": {"tensor": {"dtype": "DT_FLOAT", "tensorShape": {"dim": [{"size": "1"}, {"size": "1"}, {"size": "1024"}, {"size": "256"}]}}}}}, {"name": "unknown_50", "op": "Const", "attr": {"dtype": {"type": "DT_FLOAT"}, "value": {"tensor": {"dtype": "DT_FLOAT", "tensorShape": {"dim": [{"size": "256"}]}}}}}, {"name": "unknown_40", "op": "Const", "attr": {"value": {"tensor": {"dtype": "DT_FLOAT", "tensorShape": {"dim": [{"size": "3"}, {"size": "3"}, {"size": "256"}, {"size": "256"}]}}}, "dtype": {"type": "DT_FLOAT"}}}, {"name": "unknown_42", "op": "Const", "attr": {"dtype": {"type": "DT_FLOAT"}, "value": {"tensor": {"dtype": "DT_FLOAT", "tensorShape": {"dim": [{"size": "256"}]}}}}}, {"name": "unknown_37", "op": "Const", "attr": {"dtype": {"type": "DT_FLOAT"}, "value": {"tensor": {"dtype": "DT_FLOAT", "tensorShape": {"dim": [{"size": "3"}, {"size": "3"}, {"size": "256"}, {"size": "256"}]}}}}}, {"name": "unknown_38", "op": "Const", "attr": {"value": {"tensor": {"dtype": "DT_FLOAT", "tensorShape": {"dim": [{"size": "256"}]}}}, "dtype": {"type": "DT_FLOAT"}}}, {"name": "unknown_35", "op": "Const", "attr": {"value": {"tensor": {"dtype": "DT_FLOAT", "tensorShape": {"dim": [{"size": "1"}, {"size": "1"}, {"size": "256"}, {"size": "256"}]}}}, "dtype": {"type": "DT_FLOAT"}}}, {"name": "unknown_36", "op": "Const", "attr": {"dtype": {"type": "DT_FLOAT"}, "value": {"tensor": {"dtype": "DT_FLOAT", "tensorShape": {"dim": [{"size": "256"}]}}}}}, {"name": "unknown_30", "op": "Const", "attr": {"dtype": {"type": "DT_FLOAT"}, "value": {"tensor": {"dtype": "DT_FLOAT", "tensorShape": {"dim": [{"size": "3"}, {"size": "3"}, {"size": "128"}, {"size": "128"}]}}}}}, {"name": "unknown_32", "op": "Const", "attr": {"dtype": {"type": "DT_FLOAT"}, "value": {"tensor": {"dtype": "DT_FLOAT", "tensorShape": {"dim": [{"size": "128"}]}}}}}, {"name": "unknown_27", "op": "Const", "attr": {"dtype": {"type": "DT_FLOAT"}, "value": {"tensor": {"dtype": "DT_FLOAT", "tensorShape": {"dim": [{"size": "3"}, {"size": "3"}, {"size": "128"}, {"size": "128"}]}}}}}, {"name": "unknown_28", "op": "Const", "attr": {"dtype": {"type": "DT_FLOAT"}, "value": {"tensor": {"dtype": "DT_FLOAT", "tensorShape": {"dim": [{"size": "128"}]}}}}}, {"name": "unknown_25", "op": "Const", "attr": {"value": {"tensor": {"dtype": "DT_FLOAT", "tensorShape": {"dim": [{"size": "1"}, {"size": "1"}, {"size": "128"}, {"size": "128"}]}}}, "dtype": {"type": "DT_FLOAT"}}}, {"name": "unknown_26", "op": "Const", "attr": {"value": {"tensor": {"dtype": "DT_FLOAT", "tensorShape": {"dim": [{"size": "128"}]}}}, "dtype": {"type": "DT_FLOAT"}}}, {"name": "unknown_20", "op": "Const", "attr": {"value": {"tensor": {"dtype": "DT_FLOAT", "tensorShape": {"dim": [{"size": "3"}, {"size": "3"}, {"size": "64"}, {"size": "64"}]}}}, "dtype": {"type": "DT_FLOAT"}}}, {"name": "unknown_22", "op": "Const", "attr": {"dtype": {"type": "DT_FLOAT"}, "value": {"tensor": {"dtype": "DT_FLOAT", "tensorShape": {"dim": [{"size": "64"}]}}}}}, {"name": "unknown_17", "op": "Const", "attr": {"value": {"tensor": {"dtype": "DT_FLOAT", "tensorShape": {"dim": [{"size": "3"}, {"size": "3"}, {"size": "64"}, {"size": "64"}]}}}, "dtype": {"type": "DT_FLOAT"}}}, {"name": "unknown_18", "op": "Const", "attr": {"value": {"tensor": {"dtype": "DT_FLOAT", "tensorShape": {"dim": [{"size": "64"}]}}}, "dtype": {"type": "DT_FLOAT"}}}, {"name": "unknown_15", "op": "Const", "attr": {"dtype": {"type": "DT_FLOAT"}, "value": {"tensor": {"dtype": "DT_FLOAT", "tensorShape": {"dim": [{"size": "1"}, {"size": "1"}, {"size": "64"}, {"size": "64"}]}}}}}, {"name": "unknown_16", "op": "Const", "attr": {"value": {"tensor": {"dtype": "DT_FLOAT", "tensorShape": {"dim": [{"size": "64"}]}}}, "dtype": {"type": "DT_FLOAT"}}}, {"name": "unknown_10", "op": "Const", "attr": {"dtype": {"type": "DT_FLOAT"}, "value": {"tensor": {"dtype": "DT_FLOAT", "tensorShape": {"dim": [{"size": "3"}, {"size": "3"}, {"size": "32"}, {"size": "32"}]}}}}}, {"name": "unknown_12", "op": "Const", "attr": {"dtype": {"type": "DT_FLOAT"}, "value": {"tensor": {"dtype": "DT_FLOAT", "tensorShape": {"dim": [{"size": "32"}]}}}}}, {"name": "unknown_7", "op": "Const", "attr": {"value": {"tensor": {"dtype": "DT_FLOAT", "tensorShape": {"dim": [{"size": "3"}, {"size": "3"}, {"size": "32"}, {"size": "32"}]}}}, "dtype": {"type": "DT_FLOAT"}}}, {"name": "unknown_8", "op": "Const", "attr": {"dtype": {"type": "DT_FLOAT"}, "value": {"tensor": {"dtype": "DT_FLOAT", "tensorShape": {"dim": [{"size": "32"}]}}}}}, {"name": "unknown_5", "op": "Const", "attr": {"value": {"tensor": {"dtype": "DT_FLOAT", "tensorShape": {"dim": [{"size": "1"}, {"size": "1"}, {"size": "64"}, {"size": "32"}]}}}, "dtype": {"type": "DT_FLOAT"}}}, {"name": "unknown_6", "op": "Const", "attr": {"value": {"tensor": {"dtype": "DT_FLOAT", "tensorShape": {"dim": [{"size": "32"}]}}}, "dtype": {"type": "DT_FLOAT"}}}, {"name": "unknown", "op": "Const", "attr": {"dtype": {"type": "DT_INT32"}, "value": {"tensor": {"dtype": "DT_INT32", "tensorShape": {"dim": [{"size": "4"}, {"size": "2"}]}}}}}, {"name": "unknown_0", "op": "Const", "attr": {"dtype": {"type": "DT_FLOAT"}, "value": {"tensor": {"dtype": "DT_FLOAT", "tensorShape": {"dim": [{"size": "3"}, {"size": "3"}, {"size": "3"}, {"size": "32"}]}}}}}, {"name": "unknown_1", "op": "Const", "attr": {"dtype": {"type": "DT_FLOAT"}, "value": {"tensor": {"dtype": "DT_FLOAT", "tensorShape": {"dim": [{"size": "32"}]}}}}}, {"name": "unknown_2", "op": "Const", "attr": {"dtype": {"type": "DT_INT32"}, "value": {"tensor": {"dtype": "DT_INT32", "tensorShape": {"dim": [{"size": "4"}, {"size": "2"}]}}}}}, {"name": "unknown_3", "op": "Const", "attr": {"value": {"tensor": {"dtype": "DT_FLOAT", "tensorShape": {"dim": [{"size": "3"}, {"size": "3"}, {"size": "32"}, {"size": "64"}]}}}, "dtype": {"type": "DT_FLOAT"}}}, {"name": "unknown_4", "op": "Const", "attr": {"dtype": {"type": "DT_FLOAT"}, "value": {"tensor": {"dtype": "DT_FLOAT", "tensorShape": {"dim": [{"size": "64"}]}}}}}, {"name": "unknown_9", "op": "Const", "attr": {"value": {"tensor": {"dtype": "DT_FLOAT", "tensorShape": {"dim": [{"size": "1"}, {"size": "1"}, {"size": "64"}, {"size": "32"}]}}}, "dtype": {"type": "DT_FLOAT"}}}, {"name": "unknown_11", "op": "Const", "attr": {"dtype": {"type": "DT_FLOAT"}, "value": {"tensor": {"dtype": "DT_FLOAT", "tensorShape": {"dim": [{"size": "32"}]}}}}}, {"name": "PartitionedCall/model_263/tf.concat/concat/axis", "op": "Const", "attr": {"dtype": {"type": "DT_INT32"}, "value": {"tensor": {"dtype": "DT_INT32", "tensorShape": {}}}}}, {"name": "unknown_13", "op": "Const", "attr": {"value": {"tensor": {"dtype": "DT_FLOAT", "tensorShape": {"dim": [{"size": "1"}, {"size": "1"}, {"size": "128"}, {"size": "64"}]}}}, "dtype": {"type": "DT_FLOAT"}}}, {"name": "unknown_14", "op": "Const", "attr": {"value": {"tensor": {"dtype": "DT_FLOAT", "tensorShape": {"dim": [{"size": "64"}]}}}, "dtype": {"type": "DT_FLOAT"}}}, {"name": "unknown_19", "op": "Const", "attr": {"dtype": {"type": "DT_FLOAT"}, "value": {"tensor": {"dtype": "DT_FLOAT", "tensorShape": {"dim": [{"size": "1"}, {"size": "1"}, {"size": "64"}, {"size": "64"}]}}}}}, {"name": "unknown_21", "op": "Const", "attr": {"value": {"tensor": {"dtype": "DT_FLOAT", "tensorShape": {"dim": [{"size": "64"}]}}}, "dtype": {"type": "DT_FLOAT"}}}, {"name": "PartitionedCall/model_263/tf.concat_1/concat/axis", "op": "Const", "attr": {"dtype": {"type": "DT_INT32"}, "value": {"tensor": {"dtype": "DT_INT32", "tensorShape": {}}}}}, {"name": "unknown_23", "op": "Const", "attr": {"dtype": {"type": "DT_FLOAT"}, "value": {"tensor": {"dtype": "DT_FLOAT", "tensorShape": {"dim": [{"size": "1"}, {"size": "1"}, {"size": "256"}, {"size": "128"}]}}}}}, {"name": "unknown_24", "op": "Const", "attr": {"value": {"tensor": {"dtype": "DT_FLOAT", "tensorShape": {"dim": [{"size": "128"}]}}}, "dtype": {"type": "DT_FLOAT"}}}, {"name": "unknown_29", "op": "Const", "attr": {"value": {"tensor": {"dtype": "DT_FLOAT", "tensorShape": {"dim": [{"size": "1"}, {"size": "1"}, {"size": "128"}, {"size": "128"}]}}}, "dtype": {"type": "DT_FLOAT"}}}, {"name": "unknown_31", "op": "Const", "attr": {"dtype": {"type": "DT_FLOAT"}, "value": {"tensor": {"dtype": "DT_FLOAT", "tensorShape": {"dim": [{"size": "128"}]}}}}}, {"name": "PartitionedCall/model_263/tf.concat_2/concat/axis", "op": "Const", "attr": {"dtype": {"type": "DT_INT32"}, "value": {"tensor": {"dtype": "DT_INT32", "tensorShape": {}}}}}, {"name": "unknown_33", "op": "Const", "attr": {"dtype": {"type": "DT_FLOAT"}, "value": {"tensor": {"dtype": "DT_FLOAT", "tensorShape": {"dim": [{"size": "1"}, {"size": "1"}, {"size": "512"}, {"size": "256"}]}}}}}, {"name": "unknown_34", "op": "Const", "attr": {"dtype": {"type": "DT_FLOAT"}, "value": {"tensor": {"dtype": "DT_FLOAT", "tensorShape": {"dim": [{"size": "256"}]}}}}}, {"name": "unknown_39", "op": "Const", "attr": {"value": {"tensor": {"dtype": "DT_FLOAT", "tensorShape": {"dim": [{"size": "1"}, {"size": "1"}, {"size": "256"}, {"size": "256"}]}}}, "dtype": {"type": "DT_FLOAT"}}}, {"name": "unknown_41", "op": "Const", "attr": {"value": {"tensor": {"dtype": "DT_FLOAT", "tensorShape": {"dim": [{"size": "256"}]}}}, "dtype": {"type": "DT_FLOAT"}}}, {"name": "PartitionedCall/model_263/tf.concat_3/concat/axis", "op": "Const", "attr": {"dtype": {"type": "DT_INT32"}, "value": {"tensor": {"dtype": "DT_INT32", "tensorShape": {}}}}}, {"name": "unknown_43", "op": "Const", "attr": {"dtype": {"type": "DT_FLOAT"}, "value": {"tensor": {"dtype": "DT_FLOAT", "tensorShape": {"dim": [{"size": "1"}, {"size": "1"}, {"size": "1024"}, {"size": "512"}]}}}}}, {"name": "unknown_44", "op": "Const", "attr": {"value": {"tensor": {"dtype": "DT_FLOAT", "tensorShape": {"dim": [{"size": "512"}]}}}, "dtype": {"type": "DT_FLOAT"}}}, {"name": "unknown_47", "op": "Const", "attr": {"value": {"tensor": {"dtype": "DT_FLOAT", "tensorShape": {"dim": [{"size": "1"}, {"size": "1"}, {"size": "512"}, {"size": "256"}]}}}, "dtype": {"type": "DT_FLOAT"}}}, {"name": "unknown_49", "op": "Const", "attr": {"dtype": {"type": "DT_FLOAT"}, "value": {"tensor": {"dtype": "DT_FLOAT", "tensorShape": {"dim": [{"size": "256"}]}}}}}, {"name": "PartitionedCall/model_263/tf.concat_5/concat/axis", "op": "Const", "attr": {"dtype": {"type": "DT_INT32"}, "value": {"tensor": {"dtype": "DT_INT32", "tensorShape": {}}}}}, {"name": "unknown_51", "op": "Const", "attr": {"value": {"tensor": {"dtype": "DT_FLOAT", "tensorShape": {"dim": [{"size": "1"}, {"size": "1"}, {"size": "512"}, {"size": "256"}]}}}, "dtype": {"type": "DT_FLOAT"}}}, {"name": "unknown_52", "op": "Const", "attr": {"value": {"tensor": {"dtype": "DT_FLOAT", "tensorShape": {"dim": [{"size": "256"}]}}}, "dtype": {"type": "DT_FLOAT"}}}, {"name": "PartitionedCall/model_263/tf.concat_13/concat/axis", "op": "Const", "attr": {"value": {"tensor": {"dtype": "DT_INT32", "tensorShape": {}}}, "dtype": {"type": "DT_INT32"}}}, {"name": "unknown_101", "op": "Const", "attr": {"value": {"tensor": {"dtype": "DT_FLOAT", "tensorShape": {"dim": [{"size": "1"}, {"size": "1"}, {"size": "512"}, {"size": "128"}]}}}, "dtype": {"type": "DT_FLOAT"}}}, {"name": "unknown_103", "op": "Const", "attr": {"value": {"tensor": {"dtype": "DT_FLOAT", "tensorShape": {"dim": [{"size": "128"}]}}}, "dtype": {"type": "DT_FLOAT"}}}, {"name": "PartitionedCall/model_263/tf.concat_14/concat/axis", "op": "Const", "attr": {"dtype": {"type": "DT_INT32"}, "value": {"tensor": {"dtype": "DT_INT32", "tensorShape": {}}}}}, {"name": "unknown_105", "op": "Const", "attr": {"dtype": {"type": "DT_FLOAT"}, "value": {"tensor": {"dtype": "DT_FLOAT", "tensorShape": {"dim": [{"size": "1"}, {"size": "1"}, {"size": "512"}, {"size": "256"}]}}}}}, {"name": "unknown_106", "op": "Const", "attr": {"dtype": {"type": "DT_FLOAT"}, "value": {"tensor": {"dtype": "DT_FLOAT", "tensorShape": {"dim": [{"size": "256"}]}}}}}, {"name": "unknown_107", "op": "Const", "attr": {"dtype": {"type": "DT_FLOAT"}, "value": {"tensor": {"dtype": "DT_FLOAT", "tensorShape": {"dim": [{"size": "3"}, {"size": "3"}, {"size": "256"}, {"size": "512"}]}}}}}, {"name": "unknown_110", "op": "Const", "attr": {"value": {"tensor": {"dtype": "DT_FLOAT", "tensorShape": {"dim": [{"size": "512"}]}}}, "dtype": {"type": "DT_FLOAT"}}}, {"name": "unknown_113", "op": "Const", "attr": {"value": {"tensor": {"dtype": "DT_FLOAT", "tensorShape": {"dim": [{"size": "1"}, {"size": "1"}, {"size": "512"}, {"size": "255"}]}}}, "dtype": {"type": "DT_FLOAT"}}}, {"name": "unknown_116", "op": "Const", "attr": {"dtype": {"type": "DT_FLOAT"}, "value": {"tensor": {"dtype": "DT_FLOAT", "tensorShape": {"dim": [{"size": "255"}]}}}}}, {"name": "PartitionedCall/model_263/tf.compat.v1.transpose_147/transpose/perm", "op": "Const", "attr": {"dtype": {"type": "DT_INT32"}, "value": {"tensor": {"dtype": "DT_INT32", "tensorShape": {"dim": [{"size": "4"}]}}}}}, {"name": "PartitionedCall/model_263/tf.reshape_133/Reshape/shape", "op": "Const", "attr": {"dtype": {"type": "DT_INT32"}, "value": {"tensor": {"dtype": "DT_INT32", "tensorShape": {"dim": [{"size": "5"}]}}}}}, {"name": "PartitionedCall/model_263/tf.compat.v1.transpose_150/transpose/perm", "op": "Const", "attr": {"value": {"tensor": {"dtype": "DT_INT32", "tensorShape": {"dim": [{"size": "5"}]}}}, "dtype": {"type": "DT_INT32"}}}, {"name": "PartitionedCall/model_263/tf.split_2/Const", "op": "Const", "attr": {"value": {"tensor": {"dtype": "DT_INT32", "tensorShape": {"dim": [{"size": "3"}]}}}, "dtype": {"type": "DT_INT32"}}}, {"name": "PartitionedCall/model_263/tf.split_2/split/split_dim", "op": "Const", "attr": {"dtype": {"type": "DT_INT32"}, "value": {"tensor": {"dtype": "DT_INT32", "tensorShape": {}}}}}, {"name": "PartitionedCall/model_263/tf.concat_16/concat/axis", "op": "Const", "attr": {"dtype": {"type": "DT_INT32"}, "value": {"tensor": {"dtype": "DT_INT32", "tensorShape": {}}}}}, {"name": "PartitionedCall/model_263/tf.reshape_255/Reshape/shape", "op": "Const", "attr": {"dtype": {"type": "DT_INT32"}, "value": {"tensor": {"dtype": "DT_INT32", "tensorShape": {"dim": [{"size": "3"}]}}}}}, {"name": "PartitionedCall/model_263/tf.concat_17/concat/axis", "op": "Const", "attr": {"value": {"tensor": {"dtype": "DT_INT32", "tensorShape": {}}}, "dtype": {"type": "DT_INT32"}}}, {"name": "unknown_127", "op": "Const", "attr": {"value": {"tensor": {"dtype": "DT_INT64", "tensorShape": {"dim": [{"size": "3"}]}}}, "dtype": {"type": "DT_INT64"}}}, {"name": "unknown_128", "op": "Const", "attr": {"dtype": {"type": "DT_INT64"}, "value": {"tensor": {"dtype": "DT_INT64", "tensorShape": {"dim": [{"size": "3"}]}}}}}, {"name": "PartitionedCall/model_263/tf.strided_slice_1/StridedSlice/strides", "op": "Const", "attr": {"value": {"tensor": {"dtype": "DT_INT64", "tensorShape": {"dim": [{"size": "3"}]}}}, "dtype": {"type": "DT_INT64"}}}, {"name": "PartitionedCall/model_263/tf.math.reduce_max_1/Max/reduction_indices", "op": "Const", "attr": {"value": {"tensor": {"dtype": "DT_INT32", "tensorShape": {"dim": [{"size": "1"}]}}}, "dtype": {"type": "DT_INT32"}}}, {"name": "PartitionedCall/model_263/tf.compat.v1.transpose_277/transpose/perm", "op": "Const", "attr": {"value": {"tensor": {"dtype": "DT_INT32", "tensorShape": {"dim": [{"size": "3"}]}}}, "dtype": {"type": "DT_INT32"}}}, {"name": "PartitionedCall/model_263/tf.compat.v1.squeeze_7/Squeeze", "op": "Const", "attr": {"value": {"tensor": {"dtype": "DT_INT32", "tensorShape": {}}}, "dtype": {"type": "DT_INT32"}}}, {"name": "unknown_139", "op": "Const", "attr": {"dtype": {"type": "DT_FLOAT"}, "value": {"tensor": {"dtype": "DT_FLOAT", "tensorShape": {}}}}}, {"name": "unknown_140", "op": "Const", "attr": {"dtype": {"type": "DT_FLOAT"}, "value": {"tensor": {"dtype": "DT_FLOAT", "tensorShape": {}}}}}, {"name": "PartitionedCall/model_263/tf.compat.v1.transpose_278/transpose/perm", "op": "Const", "attr": {"dtype": {"type": "DT_INT32"}, "value": {"tensor": {"dtype": "DT_INT32", "tensorShape": {"dim": [{"size": "2"}]}}}}}, {"name": "unknown_142", "op": "Const", "attr": {"value": {"tensor": {"dtype": "DT_INT64", "tensorShape": {}}}, "dtype": {"type": "DT_INT64"}}}, {"name": "unknown_141", "op": "Const", "attr": {"value": {"tensor": {"dtype": "DT_INT32", "tensorShape": {"dim": [{"size": "2"}, {"size": "2"}]}}}, "dtype": {"type": "DT_INT32"}}}, {"name": "unknown_143", "op": "Const", "attr": {"dtype": {"type": "DT_INT64"}, "value": {"tensor": {"dtype": "DT_INT64", "tensorShape": {}}}}}, {"name": "PartitionedCall/model_263/tf.compat.v1.gather/GatherV2/indices", "op": "Const", "attr": {"dtype": {"type": "DT_INT32"}, "value": {"tensor": {"dtype": "DT_INT32", "tensorShape": {}}}}}, {"name": "PartitionedCall/model_263/tf.compat.v1.gather/GatherV2/axis", "op": "Const", "attr": {"dtype": {"type": "DT_INT32"}, "value": {"tensor": {"dtype": "DT_INT32", "tensorShape": {}}}}}, {"name": "PartitionedCall/model_263/tf.math.multiply_37/Mul/y", "op": "Const", "attr": {"dtype": {"type": "DT_INT64"}, "value": {"tensor": {"dtype": "DT_INT64", "tensorShape": {"dim": [{"size": "1"}]}}}}}, {"name": "PartitionedCall/model_263/tf.math.less_2/Less/y", "op": "Const", "attr": {"dtype": {"type": "DT_INT64"}, "value": {"tensor": {"dtype": "DT_INT64", "tensorShape": {}}}}}, {"name": "PartitionedCall/model_263/tf.__operators__.getitem_5/strided_slice", "op": "Const", "attr": {"dtype": {"type": "DT_INT64"}, "value": {"tensor": {"dtype": "DT_INT64", "tensorShape": {}}}}}, {"name": "PartitionedCall/model_263/tf.compat.v1.gather_4/GatherV2/axis", "op": "Const", "attr": {"dtype": {"type": "DT_INT32"}, "value": {"tensor": {"dtype": "DT_INT32", "tensorShape": {}}}}}, {"name": "PartitionedCall/model_263/output/concat/axis", "op": "Const", "attr": {"dtype": {"type": "DT_INT32"}, "value": {"tensor": {"dtype": "DT_INT32", "tensorShape": {}}}}}, {"name": "images", "op": "Placeholder", "attr": {"dtype": {"type": "DT_FLOAT"}, "shape": {"shape": {"dim": [{"size": "1"}, {"size": "640"}, {"size": "640"}, {"size": "3"}]}}}}, {"name": "PartitionedCall/model_263/tf.compat.v1.pad/Pad", "op": "Pad", "input": ["images", "unknown"], "attr": {"T": {"type": "DT_FLOAT"}, "Tpaddings": {"type": "DT_INT32"}}}, {"name": "PartitionedCall/model_263/tf.nn.leaky_relu/LeakyRelu", "op": "_FusedConv2D", "input": ["PartitionedCall/model_263/tf.compat.v1.pad/Pad", "unknown_0", "unknown_1"], "device": "/device:CPU:0", "attr": {"num_args": {"i": "1"}, "TArgs": {"list": {"type": ["DT_FLOAT"]}}, "explicit_paddings": {"list": {}}, "fused_ops": {"list": {"s": ["Qmlhc0FkZA==", "TGVha3lSZWx1"]}}, "use_cudnn_on_gpu": {"b": true}, "padding": {"s": "VkFMSUQ="}, "strides": {"list": {"i": ["1", "2", "2", "1"]}}, "T": {"type": "DT_FLOAT"}, "data_format": {"s": "TkhXQw=="}, "filter_format": {"s": "SFdJTw=="}, "epsilon": {"f": 0.0}, "leakyrelu_alpha": {"f": 0.1}, "num_host_args": {"i": "0"}, "dilations": {"list": {"i": ["1", "1", "1", "1"]}}}}, {"name": "PartitionedCall/model_263/tf.compat.v1.pad_1/Pad", "op": "Pad", "input": ["PartitionedCall/model_263/tf.nn.leaky_relu/LeakyRelu", "unknown_2"], "attr": {"Tpaddings": {"type": "DT_INT32"}, "T": {"type": "DT_FLOAT"}}}, {"name": "PartitionedCall/model_263/tf.nn.leaky_relu_1/LeakyRelu", "op": "_FusedConv2D", "input": ["PartitionedCall/model_263/tf.compat.v1.pad_1/Pad", "unknown_3", "unknown_4"], "device": "/device:CPU:0", "attr": {"explicit_paddings": {"list": {}}, "TArgs": {"list": {"type": ["DT_FLOAT"]}}, "num_args": {"i": "1"}, "fused_ops": {"list": {"s": ["Qmlhc0FkZA==", "TGVha3lSZWx1"]}}, "padding": {"s": "VkFMSUQ="}, "use_cudnn_on_gpu": {"b": true}, "strides": {"list": {"i": ["1", "2", "2", "1"]}}, "T": {"type": "DT_FLOAT"}, "data_format": {"s": "TkhXQw=="}, "filter_format": {"s": "SFdJTw=="}, "epsilon": {"f": 0.0}, "leakyrelu_alpha": {"f": 0.1}, "num_host_args": {"i": "0"}, "dilations": {"list": {"i": ["1", "1", "1", "1"]}}}}, {"name": "PartitionedCall/model_263/tf.nn.leaky_relu_3/LeakyRelu", "op": "_FusedConv2D", "input": ["PartitionedCall/model_263/tf.nn.leaky_relu_1/LeakyRelu", "unknown_5", "unknown_6"], "device": "/device:CPU:0", "attr": {"num_args": {"i": "1"}, "TArgs": {"list": {"type": ["DT_FLOAT"]}}, "explicit_paddings": {"list": {}}, "fused_ops": {"list": {"s": ["Qmlhc0FkZA==", "TGVha3lSZWx1"]}}, "padding": {"s": "U0FNRQ=="}, "use_cudnn_on_gpu": {"b": true}, "strides": {"list": {"i": ["1", "1", "1", "1"]}}, "T": {"type": "DT_FLOAT"}, "data_format": {"s": "TkhXQw=="}, "filter_format": {"s": "SFdJTw=="}, "epsilon": {"f": 0.0}, "leakyrelu_alpha": {"f": 0.1}, "num_host_args": {"i": "0"}, "dilations": {"list": {"i": ["1", "1", "1", "1"]}}}}, {"name": "PartitionedCall/model_263/tf.nn.leaky_relu_2/LeakyRelu", "op": "_FusedConv2D", "input": ["PartitionedCall/model_263/tf.nn.leaky_relu_1/LeakyRelu", "unknown_9", "unknown_11"], "device": "/device:CPU:0", "attr": {"num_args": {"i": "1"}, "TArgs": {"list": {"type": ["DT_FLOAT"]}}, "explicit_paddings": {"list": {}}, "fused_ops": {"list": {"s": ["Qmlhc0FkZA==", "TGVha3lSZWx1"]}}, "use_cudnn_on_gpu": {"b": true}, "padding": {"s": "U0FNRQ=="}, "strides": {"list": {"i": ["1", "1", "1", "1"]}}, "T": {"type": "DT_FLOAT"}, "data_format": {"s": "TkhXQw=="}, "epsilon": {"f": 0.0}, "filter_format": {"s": "SFdJTw=="}, "leakyrelu_alpha": {"f": 0.1}, "num_host_args": {"i": "0"}, "dilations": {"list": {"i": ["1", "1", "1", "1"]}}}}, {"name": "PartitionedCall/model_263/tf.nn.leaky_relu_4/LeakyRelu", "op": "_FusedConv2D", "input": ["PartitionedCall/model_263/tf.nn.leaky_relu_3/LeakyRelu", "unknown_7", "unknown_8"], "device": "/device:CPU:0", "attr": {"num_args": {"i": "1"}, "TArgs": {"list": {"type": ["DT_FLOAT"]}}, "explicit_paddings": {"list": {}}, "fused_ops": {"list": {"s": ["Qmlhc0FkZA==", "TGVha3lSZWx1"]}}, "use_cudnn_on_gpu": {"b": true}, "padding": {"s": "U0FNRQ=="}, "strides": {"list": {"i": ["1", "1", "1", "1"]}}, "T": {"type": "DT_FLOAT"}, "data_format": {"s": "TkhXQw=="}, "epsilon": {"f": 0.0}, "filter_format": {"s": "SFdJTw=="}, "leakyrelu_alpha": {"f": 0.1}, "num_host_args": {"i": "0"}, "dilations": {"list": {"i": ["1", "1", "1", "1"]}}}}, {"name": "PartitionedCall/model_263/tf.nn.leaky_relu_5/LeakyRelu", "op": "_FusedConv2D", "input": ["PartitionedCall/model_263/tf.nn.leaky_relu_4/LeakyRelu", "unknown_10", "unknown_12"], "device": "/device:CPU:0", "attr": {"num_args": {"i": "1"}, "TArgs": {"list": {"type": ["DT_FLOAT"]}}, "explicit_paddings": {"list": {}}, "fused_ops": {"list": {"s": ["Qmlhc0FkZA==", "TGVha3lSZWx1"]}}, "padding": {"s": "U0FNRQ=="}, "use_cudnn_on_gpu": {"b": true}, "strides": {"list": {"i": ["1", "1", "1", "1"]}}, "T": {"type": "DT_FLOAT"}, "data_format": {"s": "TkhXQw=="}, "epsilon": {"f": 0.0}, "filter_format": {"s": "SFdJTw=="}, "leakyrelu_alpha": {"f": 0.1}, "num_host_args": {"i": "0"}, "dilations": {"list": {"i": ["1", "1", "1", "1"]}}}}, {"name": "PartitionedCall/model_263/tf.concat/concat", "op": "ConcatV2", "input": ["PartitionedCall/model_263/tf.nn.leaky_relu_5/LeakyRelu", "PartitionedCall/model_263/tf.nn.leaky_relu_4/LeakyRelu", "PartitionedCall/model_263/tf.nn.leaky_relu_3/LeakyRelu", "PartitionedCall/model_263/tf.nn.leaky_relu_2/LeakyRelu", "PartitionedCall/model_263/tf.concat/concat/axis"], "attr": {"T": {"type": "DT_FLOAT"}, "N": {"i": "4"}, "Tidx": {"type": "DT_INT32"}}}, {"name": "PartitionedCall/model_263/tf.nn.leaky_relu_6/LeakyRelu", "op": "_FusedConv2D", "input": ["PartitionedCall/model_263/tf.concat/concat", "unknown_13", "unknown_14"], "device": "/device:CPU:0", "attr": {"explicit_paddings": {"list": {}}, "TArgs": {"list": {"type": ["DT_FLOAT"]}}, "num_args": {"i": "1"}, "fused_ops": {"list": {"s": ["Qmlhc0FkZA==", "TGVha3lSZWx1"]}}, "use_cudnn_on_gpu": {"b": true}, "padding": {"s": "U0FNRQ=="}, "strides": {"list": {"i": ["1", "1", "1", "1"]}}, "T": {"type": "DT_FLOAT"}, "data_format": {"s": "TkhXQw=="}, "epsilon": {"f": 0.0}, "filter_format": {"s": "SFdJTw=="}, "leakyrelu_alpha": {"f": 0.1}, "num_host_args": {"i": "0"}, "dilations": {"list": {"i": ["1", "1", "1", "1"]}}}}, {"name": "PartitionedCall/model_263/tf.nn.max_pool2d/MaxPool2d", "op": "MaxPool", "input": ["PartitionedCall/model_263/tf.nn.leaky_relu_6/LeakyRelu"], "attr": {"T": {"type": "DT_FLOAT"}, "explicit_paddings": {"list": {}}, "ksize": {"list": {"i": ["1", "2", "2", "1"]}}, "padding": {"s": "VkFMSUQ="}, "data_format": {"s": "TkhXQw=="}, "strides": {"list": {"i": ["1", "2", "2", "1"]}}}}, {"name": "PartitionedCall/model_263/tf.nn.leaky_relu_8/LeakyRelu", "op": "_FusedConv2D", "input": ["PartitionedCall/model_263/tf.nn.max_pool2d/MaxPool2d", "unknown_15", "unknown_16"], "device": "/device:CPU:0", "attr": {"explicit_paddings": {"list": {}}, "TArgs": {"list": {"type": ["DT_FLOAT"]}}, "num_args": {"i": "1"}, "fused_ops": {"list": {"s": ["Qmlhc0FkZA==", "TGVha3lSZWx1"]}}, "padding": {"s": "U0FNRQ=="}, "use_cudnn_on_gpu": {"b": true}, "strides": {"list": {"i": ["1", "1", "1", "1"]}}, "T": {"type": "DT_FLOAT"}, "data_format": {"s": "TkhXQw=="}, "filter_format": {"s": "SFdJTw=="}, "epsilon": {"f": 0.0}, "leakyrelu_alpha": {"f": 0.1}, "num_host_args": {"i": "0"}, "dilations": {"list": {"i": ["1", "1", "1", "1"]}}}}, {"name": "PartitionedCall/model_263/tf.nn.leaky_relu_7/LeakyRelu", "op": "_FusedConv2D", "input": ["PartitionedCall/model_263/tf.nn.max_pool2d/MaxPool2d", "unknown_19", "unknown_21"], "device": "/device:CPU:0", "attr": {"explicit_paddings": {"list": {}}, "TArgs": {"list": {"type": ["DT_FLOAT"]}}, "num_args": {"i": "1"}, "fused_ops": {"list": {"s": ["Qmlhc0FkZA==", "TGVha3lSZWx1"]}}, "padding": {"s": "U0FNRQ=="}, "use_cudnn_on_gpu": {"b": true}, "strides": {"list": {"i": ["1", "1", "1", "1"]}}, "T": {"type": "DT_FLOAT"}, "data_format": {"s": "TkhXQw=="}, "filter_format": {"s": "SFdJTw=="}, "epsilon": {"f": 0.0}, "leakyrelu_alpha": {"f": 0.1}, "num_host_args": {"i": "0"}, "dilations": {"list": {"i": ["1", "1", "1", "1"]}}}}, {"name": "PartitionedCall/model_263/tf.nn.leaky_relu_9/LeakyRelu", "op": "_FusedConv2D", "input": ["PartitionedCall/model_263/tf.nn.leaky_relu_8/LeakyRelu", "unknown_17", "unknown_18"], "device": "/device:CPU:0", "attr": {"num_args": {"i": "1"}, "TArgs": {"list": {"type": ["DT_FLOAT"]}}, "explicit_paddings": {"list": {}}, "fused_ops": {"list": {"s": ["Qmlhc0FkZA==", "TGVha3lSZWx1"]}}, "use_cudnn_on_gpu": {"b": true}, "padding": {"s": "U0FNRQ=="}, "strides": {"list": {"i": ["1", "1", "1", "1"]}}, "T": {"type": "DT_FLOAT"}, "data_format": {"s": "TkhXQw=="}, "filter_format": {"s": "SFdJTw=="}, "epsilon": {"f": 0.0}, "leakyrelu_alpha": {"f": 0.1}, "num_host_args": {"i": "0"}, "dilations": {"list": {"i": ["1", "1", "1", "1"]}}}}, {"name": "PartitionedCall/model_263/tf.nn.leaky_relu_10/LeakyRelu", "op": "_FusedConv2D", "input": ["PartitionedCall/model_263/tf.nn.leaky_relu_9/LeakyRelu", "unknown_20", "unknown_22"], "device": "/device:CPU:0", "attr": {"num_args": {"i": "1"}, "TArgs": {"list": {"type": ["DT_FLOAT"]}}, "explicit_paddings": {"list": {}}, "fused_ops": {"list": {"s": ["Qmlhc0FkZA==", "TGVha3lSZWx1"]}}, "padding": {"s": "U0FNRQ=="}, "use_cudnn_on_gpu": {"b": true}, "strides": {"list": {"i": ["1", "1", "1", "1"]}}, "T": {"type": "DT_FLOAT"}, "data_format": {"s": "TkhXQw=="}, "filter_format": {"s": "SFdJTw=="}, "epsilon": {"f": 0.0}, "leakyrelu_alpha": {"f": 0.1}, "num_host_args": {"i": "0"}, "dilations": {"list": {"i": ["1", "1", "1", "1"]}}}}, {"name": "PartitionedCall/model_263/tf.concat_1/concat", "op": "ConcatV2", "input": ["PartitionedCall/model_263/tf.nn.leaky_relu_10/LeakyRelu", "PartitionedCall/model_263/tf.nn.leaky_relu_9/LeakyRelu", "PartitionedCall/model_263/tf.nn.leaky_relu_8/LeakyRelu", "PartitionedCall/model_263/tf.nn.leaky_relu_7/LeakyRelu", "PartitionedCall/model_263/tf.concat_1/concat/axis"], "attr": {"T": {"type": "DT_FLOAT"}, "N": {"i": "4"}, "Tidx": {"type": "DT_INT32"}}}, {"name": "PartitionedCall/model_263/tf.nn.leaky_relu_11/LeakyRelu", "op": "_FusedConv2D", "input": ["PartitionedCall/model_263/tf.concat_1/concat", "unknown_23", "unknown_24"], "device": "/device:CPU:0", "attr": {"explicit_paddings": {"list": {}}, "TArgs": {"list": {"type": ["DT_FLOAT"]}}, "num_args": {"i": "1"}, "fused_ops": {"list": {"s": ["Qmlhc0FkZA==", "TGVha3lSZWx1"]}}, "use_cudnn_on_gpu": {"b": true}, "padding": {"s": "U0FNRQ=="}, "strides": {"list": {"i": ["1", "1", "1", "1"]}}, "T": {"type": "DT_FLOAT"}, "data_format": {"s": "TkhXQw=="}, "epsilon": {"f": 0.0}, "filter_format": {"s": "SFdJTw=="}, "leakyrelu_alpha": {"f": 0.1}, "num_host_args": {"i": "0"}, "dilations": {"list": {"i": ["1", "1", "1", "1"]}}}}, {"name": "PartitionedCall/model_263/tf.nn.leaky_relu_12/LeakyRelu", "op": "_FusedConv2D", "input": ["PartitionedCall/model_263/tf.nn.leaky_relu_11/LeakyRelu", "unknown_69", "unknown_70"], "device": "/device:CPU:0", "attr": {"explicit_paddings": {"list": {}}, "TArgs": {"list": {"type": ["DT_FLOAT"]}}, "num_args": {"i": "1"}, "fused_ops": {"list": {"s": ["Qmlhc0FkZA==", "TGVha3lSZWx1"]}}, "padding": {"s": "U0FNRQ=="}, "use_cudnn_on_gpu": {"b": true}, "strides": {"list": {"i": ["1", "1", "1", "1"]}}, "T": {"type": "DT_FLOAT"}, "data_format": {"s": "TkhXQw=="}, "epsilon": {"f": 0.0}, "filter_format": {"s": "SFdJTw=="}, "leakyrelu_alpha": {"f": 0.1}, "num_host_args": {"i": "0"}, "dilations": {"list": {"i": ["1", "1", "1", "1"]}}}}, {"name": "PartitionedCall/model_263/tf.nn.max_pool2d_1/MaxPool2d", "op": "MaxPool", "input": ["PartitionedCall/model_263/tf.nn.leaky_relu_11/LeakyRelu"], "attr": {"T": {"type": "DT_FLOAT"}, "ksize": {"list": {"i": ["1", "2", "2", "1"]}}, "explicit_paddings": {"list": {}}, "data_format": {"s": "TkhXQw=="}, "padding": {"s": "VkFMSUQ="}, "strides": {"list": {"i": ["1", "2", "2", "1"]}}}}, {"name": "PartitionedCall/model_263/tf.nn.leaky_relu_14/LeakyRelu", "op": "_FusedConv2D", "input": ["PartitionedCall/model_263/tf.nn.max_pool2d_1/MaxPool2d", "unknown_25", "unknown_26"], "device": "/device:CPU:0", "attr": {"num_args": {"i": "1"}, "TArgs": {"list": {"type": ["DT_FLOAT"]}}, "explicit_paddings": {"list": {}}, "fused_ops": {"list": {"s": ["Qmlhc0FkZA==", "TGVha3lSZWx1"]}}, "use_cudnn_on_gpu": {"b": true}, "padding": {"s": "U0FNRQ=="}, "strides": {"list": {"i": ["1", "1", "1", "1"]}}, "T": {"type": "DT_FLOAT"}, "data_format": {"s": "TkhXQw=="}, "filter_format": {"s": "SFdJTw=="}, "epsilon": {"f": 0.0}, "leakyrelu_alpha": {"f": 0.1}, "num_host_args": {"i": "0"}, "dilations": {"list": {"i": ["1", "1", "1", "1"]}}}}, {"name": "PartitionedCall/model_263/tf.nn.leaky_relu_13/LeakyRelu", "op": "_FusedConv2D", "input": ["PartitionedCall/model_263/tf.nn.max_pool2d_1/MaxPool2d", "unknown_29", "unknown_31"], "device": "/device:CPU:0", "attr": {"explicit_paddings": {"list": {}}, "TArgs": {"list": {"type": ["DT_FLOAT"]}}, "num_args": {"i": "1"}, "fused_ops": {"list": {"s": ["Qmlhc0FkZA==", "TGVha3lSZWx1"]}}, "padding": {"s": "U0FNRQ=="}, "use_cudnn_on_gpu": {"b": true}, "strides": {"list": {"i": ["1", "1", "1", "1"]}}, "T": {"type": "DT_FLOAT"}, "data_format": {"s": "TkhXQw=="}, "filter_format": {"s": "SFdJTw=="}, "epsilon": {"f": 0.0}, "leakyrelu_alpha": {"f": 0.1}, "num_host_args": {"i": "0"}, "dilations": {"list": {"i": ["1", "1", "1", "1"]}}}}, {"name": "PartitionedCall/model_263/tf.nn.leaky_relu_15/LeakyRelu", "op": "_FusedConv2D", "input": ["PartitionedCall/model_263/tf.nn.leaky_relu_14/LeakyRelu", "unknown_27", "unknown_28"], "device": "/device:CPU:0", "attr": {"num_args": {"i": "1"}, "TArgs": {"list": {"type": ["DT_FLOAT"]}}, "explicit_paddings": {"list": {}}, "fused_ops": {"list": {"s": ["Qmlhc0FkZA==", "TGVha3lSZWx1"]}}, "padding": {"s": "U0FNRQ=="}, "use_cudnn_on_gpu": {"b": true}, "strides": {"list": {"i": ["1", "1", "1", "1"]}}, "T": {"type": "DT_FLOAT"}, "data_format": {"s": "TkhXQw=="}, "filter_format": {"s": "SFdJTw=="}, "epsilon": {"f": 0.0}, "leakyrelu_alpha": {"f": 0.1}, "num_host_args": {"i": "0"}, "dilations": {"list": {"i": ["1", "1", "1", "1"]}}}}, {"name": "PartitionedCall/model_263/tf.nn.leaky_relu_16/LeakyRelu", "op": "_FusedConv2D", "input": ["PartitionedCall/model_263/tf.nn.leaky_relu_15/LeakyRelu", "unknown_30", "unknown_32"], "device": "/device:CPU:0", "attr": {"num_args": {"i": "1"}, "TArgs": {"list": {"type": ["DT_FLOAT"]}}, "explicit_paddings": {"list": {}}, "fused_ops": {"list": {"s": ["Qmlhc0FkZA==", "TGVha3lSZWx1"]}}, "use_cudnn_on_gpu": {"b": true}, "padding": {"s": "U0FNRQ=="}, "strides": {"list": {"i": ["1", "1", "1", "1"]}}, "T": {"type": "DT_FLOAT"}, "data_format": {"s": "TkhXQw=="}, "epsilon": {"f": 0.0}, "filter_format": {"s": "SFdJTw=="}, "leakyrelu_alpha": {"f": 0.1}, "num_host_args": {"i": "0"}, "dilations": {"list": {"i": ["1", "1", "1", "1"]}}}}, {"name": "PartitionedCall/model_263/tf.concat_2/concat", "op": "ConcatV2", "input": ["PartitionedCall/model_263/tf.nn.leaky_relu_16/LeakyRelu", "PartitionedCall/model_263/tf.nn.leaky_relu_15/LeakyRelu", "PartitionedCall/model_263/tf.nn.leaky_relu_14/LeakyRelu", "PartitionedCall/model_263/tf.nn.leaky_relu_13/LeakyRelu", "PartitionedCall/model_263/tf.concat_2/concat/axis"], "attr": {"T": {"type": "DT_FLOAT"}, "N": {"i": "4"}, "Tidx": {"type": "DT_INT32"}}}, {"name": "PartitionedCall/model_263/tf.nn.leaky_relu_17/LeakyRelu", "op": "_FusedConv2D", "input": ["PartitionedCall/model_263/tf.concat_2/concat", "unknown_33", "unknown_34"], "device": "/device:CPU:0", "attr": {"explicit_paddings": {"list": {}}, "TArgs": {"list": {"type": ["DT_FLOAT"]}}, "num_args": {"i": "1"}, "fused_ops": {"list": {"s": ["Qmlhc0FkZA==", "TGVha3lSZWx1"]}}, "padding": {"s": "U0FNRQ=="}, "use_cudnn_on_gpu": {"b": true}, "strides": {"list": {"i": ["1", "1", "1", "1"]}}, "T": {"type": "DT_FLOAT"}, "data_format": {"s": "TkhXQw=="}, "filter_format": {"s": "SFdJTw=="}, "epsilon": {"f": 0.0}, "leakyrelu_alpha": {"f": 0.1}, "num_host_args": {"i": "0"}, "dilations": {"list": {"i": ["1", "1", "1", "1"]}}}}, {"name": "PartitionedCall/model_263/tf.nn.leaky_relu_18/LeakyRelu", "op": "_FusedConv2D", "input": ["PartitionedCall/model_263/tf.nn.leaky_relu_17/LeakyRelu", "unknown_55", "unknown_56"], "device": "/device:CPU:0", "attr": {"explicit_paddings": {"list": {}}, "TArgs": {"list": {"type": ["DT_FLOAT"]}}, "num_args": {"i": "1"}, "fused_ops": {"list": {"s": ["Qmlhc0FkZA==", "TGVha3lSZWx1"]}}, "padding": {"s": "U0FNRQ=="}, "use_cudnn_on_gpu": {"b": true}, "strides": {"list": {"i": ["1", "1", "1", "1"]}}, "T": {"type": "DT_FLOAT"}, "data_format": {"s": "TkhXQw=="}, "epsilon": {"f": 0.0}, "filter_format": {"s": "SFdJTw=="}, "leakyrelu_alpha": {"f": 0.1}, "num_host_args": {"i": "0"}, "dilations": {"list": {"i": ["1", "1", "1", "1"]}}}}, {"name": "PartitionedCall/model_263/tf.nn.max_pool2d_2/MaxPool2d", "op": "MaxPool", "input": ["PartitionedCall/model_263/tf.nn.leaky_relu_17/LeakyRelu"], "attr": {"T": {"type": "DT_FLOAT"}, "explicit_paddings": {"list": {}}, "ksize": {"list": {"i": ["1", "2", "2", "1"]}}, "padding": {"s": "VkFMSUQ="}, "data_format": {"s": "TkhXQw=="}, "strides": {"list": {"i": ["1", "2", "2", "1"]}}}}, {"name": "PartitionedCall/model_263/tf.nn.leaky_relu_20/LeakyRelu", "op": "_FusedConv2D", "input": ["PartitionedCall/model_263/tf.nn.max_pool2d_2/MaxPool2d", "unknown_35", "unknown_36"], "device": "/device:CPU:0", "attr": {"num_args": {"i": "1"}, "TArgs": {"list": {"type": ["DT_FLOAT"]}}, "explicit_paddings": {"list": {}}, "fused_ops": {"list": {"s": ["Qmlhc0FkZA==", "TGVha3lSZWx1"]}}, "padding": {"s": "U0FNRQ=="}, "use_cudnn_on_gpu": {"b": true}, "strides": {"list": {"i": ["1", "1", "1", "1"]}}, "T": {"type": "DT_FLOAT"}, "data_format": {"s": "TkhXQw=="}, "epsilon": {"f": 0.0}, "filter_format": {"s": "SFdJTw=="}, "leakyrelu_alpha": {"f": 0.1}, "num_host_args": {"i": "0"}, "dilations": {"list": {"i": ["1", "1", "1", "1"]}}}}, {"name": "PartitionedCall/model_263/tf.nn.leaky_relu_19/LeakyRelu", "op": "_FusedConv2D", "input": ["PartitionedCall/model_263/tf.nn.max_pool2d_2/MaxPool2d", "unknown_39", "unknown_41"], "device": "/device:CPU:0", "attr": {"explicit_paddings": {"list": {}}, "TArgs": {"list": {"type": ["DT_FLOAT"]}}, "num_args": {"i": "1"}, "fused_ops": {"list": {"s": ["Qmlhc0FkZA==", "TGVha3lSZWx1"]}}, "padding": {"s": "U0FNRQ=="}, "use_cudnn_on_gpu": {"b": true}, "strides": {"list": {"i": ["1", "1", "1", "1"]}}, "T": {"type": "DT_FLOAT"}, "data_format": {"s": "TkhXQw=="}, "epsilon": {"f": 0.0}, "filter_format": {"s": "SFdJTw=="}, "leakyrelu_alpha": {"f": 0.1}, "num_host_args": {"i": "0"}, "dilations": {"list": {"i": ["1", "1", "1", "1"]}}}}, {"name": "PartitionedCall/model_263/tf.nn.leaky_relu_21/LeakyRelu", "op": "_FusedConv2D", "input": ["PartitionedCall/model_263/tf.nn.leaky_relu_20/LeakyRelu", "unknown_37", "unknown_38"], "device": "/device:CPU:0", "attr": {"num_args": {"i": "1"}, "TArgs": {"list": {"type": ["DT_FLOAT"]}}, "explicit_paddings": {"list": {}}, "fused_ops": {"list": {"s": ["Qmlhc0FkZA==", "TGVha3lSZWx1"]}}, "use_cudnn_on_gpu": {"b": true}, "padding": {"s": "U0FNRQ=="}, "strides": {"list": {"i": ["1", "1", "1", "1"]}}, "T": {"type": "DT_FLOAT"}, "data_format": {"s": "TkhXQw=="}, "filter_format": {"s": "SFdJTw=="}, "epsilon": {"f": 0.0}, "leakyrelu_alpha": {"f": 0.1}, "num_host_args": {"i": "0"}, "dilations": {"list": {"i": ["1", "1", "1", "1"]}}}}, {"name": "PartitionedCall/model_263/tf.nn.leaky_relu_22/LeakyRelu", "op": "_FusedConv2D", "input": ["PartitionedCall/model_263/tf.nn.leaky_relu_21/LeakyRelu", "unknown_40", "unknown_42"], "device": "/device:CPU:0", "attr": {"explicit_paddings": {"list": {}}, "TArgs": {"list": {"type": ["DT_FLOAT"]}}, "num_args": {"i": "1"}, "fused_ops": {"list": {"s": ["Qmlhc0FkZA==", "TGVha3lSZWx1"]}}, "padding": {"s": "U0FNRQ=="}, "use_cudnn_on_gpu": {"b": true}, "strides": {"list": {"i": ["1", "1", "1", "1"]}}, "T": {"type": "DT_FLOAT"}, "data_format": {"s": "TkhXQw=="}, "filter_format": {"s": "SFdJTw=="}, "epsilon": {"f": 0.0}, "leakyrelu_alpha": {"f": 0.1}, "num_host_args": {"i": "0"}, "dilations": {"list": {"i": ["1", "1", "1", "1"]}}}}, {"name": "PartitionedCall/model_263/tf.concat_3/concat", "op": "ConcatV2", "input": ["PartitionedCall/model_263/tf.nn.leaky_relu_22/LeakyRelu", "PartitionedCall/model_263/tf.nn.leaky_relu_21/LeakyRelu", "PartitionedCall/model_263/tf.nn.leaky_relu_20/LeakyRelu", "PartitionedCall/model_263/tf.nn.leaky_relu_19/LeakyRelu", "PartitionedCall/model_263/tf.concat_3/concat/axis"], "attr": {"T": {"type": "DT_FLOAT"}, "N": {"i": "4"}, "Tidx": {"type": "DT_INT32"}}}, {"name": "PartitionedCall/model_263/tf.nn.leaky_relu_23/LeakyRelu", "op": "_FusedConv2D", "input": ["PartitionedCall/model_263/tf.concat_3/concat", "unknown_43", "unknown_44"], "device": "/device:CPU:0", "attr": {"explicit_paddings": {"list": {}}, "TArgs": {"list": {"type": ["DT_FLOAT"]}}, "num_args": {"i": "1"}, "fused_ops": {"list": {"s": ["Qmlhc0FkZA==", "TGVha3lSZWx1"]}}, "use_cudnn_on_gpu": {"b": true}, "padding": {"s": "U0FNRQ=="}, "strides": {"list": {"i": ["1", "1", "1", "1"]}}, "T": {"type": "DT_FLOAT"}, "data_format": {"s": "TkhXQw=="}, "epsilon": {"f": 0.0}, "filter_format": {"s": "SFdJTw=="}, "leakyrelu_alpha": {"f": 0.1}, "num_host_args": {"i": "0"}, "dilations": {"list": {"i": ["1", "1", "1", "1"]}}}}, {"name": "PartitionedCall/model_263/tf.nn.leaky_relu_25/LeakyRelu", "op": "_FusedConv2D", "input": ["PartitionedCall/model_263/tf.nn.leaky_relu_23/LeakyRelu", "unknown_45", "unknown_46"], "device": "/device:CPU:0", "attr": {"explicit_paddings": {"list": {}}, "TArgs": {"list": {"type": ["DT_FLOAT"]}}, "num_args": {"i": "1"}, "fused_ops": {"list": {"s": ["Qmlhc0FkZA==", "TGVha3lSZWx1"]}}, "use_cudnn_on_gpu": {"b": true}, "padding": {"s": "U0FNRQ=="}, "strides": {"list": {"i": ["1", "1", "1", "1"]}}, "T": {"type": "DT_FLOAT"}, "data_format": {"s": "TkhXQw=="}, "filter_format": {"s": "SFdJTw=="}, "epsilon": {"f": 0.0}, "leakyrelu_alpha": {"f": 0.1}, "num_host_args": {"i": "0"}, "dilations": {"list": {"i": ["1", "1", "1", "1"]}}}}, {"name": "PartitionedCall/model_263/tf.nn.leaky_relu_24/LeakyRelu", "op": "_FusedConv2D", "input": ["PartitionedCall/model_263/tf.nn.leaky_relu_23/LeakyRelu", "unknown_47", "unknown_49"], "device": "/device:CPU:0", "attr": {"explicit_paddings": {"list": {}}, "TArgs": {"list": {"type": ["DT_FLOAT"]}}, "num_args": {"i": "1"}, "fused_ops": {"list": {"s": ["Qmlhc0FkZA==", "TGVha3lSZWx1"]}}, "padding": {"s": "U0FNRQ=="}, "use_cudnn_on_gpu": {"b": true}, "strides": {"list": {"i": ["1", "1", "1", "1"]}}, "T": {"type": "DT_FLOAT"}, "data_format": {"s": "TkhXQw=="}, "filter_format": {"s": "SFdJTw=="}, "epsilon": {"f": 0.0}, "leakyrelu_alpha": {"f": 0.1}, "num_host_args": {"i": "0"}, "dilations": {"list": {"i": ["1", "1", "1", "1"]}}}}, {"name": "PartitionedCall/model_263/tf.compat.v1.nn.pool_2/max_pool", "op": "MaxPool", "input": ["PartitionedCall/model_263/tf.nn.leaky_relu_25/LeakyRelu"], "attr": {"T": {"type": "DT_FLOAT"}, "ksize": {"list": {"i": ["1", "13", "13", "1"]}}, "explicit_paddings": {"list": {}}, "padding": {"s": "U0FNRQ=="}, "data_format": {"s": "TkhXQw=="}, "strides": {"list": {"i": ["1", "1", "1", "1"]}}}}, {"name": "PartitionedCall/model_263/tf.compat.v1.nn.pool_1/max_pool", "op": "MaxPool", "input": ["PartitionedCall/model_263/tf.nn.leaky_relu_25/LeakyRelu"], "attr": {"T": {"type": "DT_FLOAT"}, "explicit_paddings": {"list": {}}, "ksize": {"list": {"i": ["1", "9", "9", "1"]}}, "data_format": {"s": "TkhXQw=="}, "padding": {"s": "U0FNRQ=="}, "strides": {"list": {"i": ["1", "1", "1", "1"]}}}}, {"name": "PartitionedCall/model_263/tf.compat.v1.nn.pool/max_pool", "op": "MaxPool", "input": ["PartitionedCall/model_263/tf.nn.leaky_relu_25/LeakyRelu"], "attr": {"T": {"type": "DT_FLOAT"}, "explicit_paddings": {"list": {}}, "ksize": {"list": {"i": ["1", "5", "5", "1"]}}, "padding": {"s": "U0FNRQ=="}, "data_format": {"s": "TkhXQw=="}, "strides": {"list": {"i": ["1", "1", "1", "1"]}}}}, {"name": "PartitionedCall/model_263/tf.concat_4/concat", "op": "ConcatV2", "input": ["PartitionedCall/model_263/tf.compat.v1.nn.pool_2/max_pool", "PartitionedCall/model_263/tf.compat.v1.nn.pool_1/max_pool", "PartitionedCall/model_263/tf.compat.v1.nn.pool/max_pool", "PartitionedCall/model_263/tf.nn.leaky_relu_25/LeakyRelu", "PartitionedCall/model_263/tf.concat_4/concat/axis"], "attr": {"T": {"type": "DT_FLOAT"}, "N": {"i": "4"}, "Tidx": {"type": "DT_INT32"}}}, {"name": "PartitionedCall/model_263/tf.nn.leaky_relu_26/LeakyRelu", "op": "_FusedConv2D", "input": ["PartitionedCall/model_263/tf.concat_4/concat", "unknown_48", "unknown_50"], "device": "/device:CPU:0", "attr": {"num_args": {"i": "1"}, "TArgs": {"list": {"type": ["DT_FLOAT"]}}, "explicit_paddings": {"list": {}}, "fused_ops": {"list": {"s": ["Qmlhc0FkZA==", "TGVha3lSZWx1"]}}, "padding": {"s": "U0FNRQ=="}, "use_cudnn_on_gpu": {"b": true}, "strides": {"list": {"i": ["1", "1", "1", "1"]}}, "T": {"type": "DT_FLOAT"}, "data_format": {"s": "TkhXQw=="}, "filter_format": {"s": "SFdJTw=="}, "epsilon": {"f": 0.0}, "leakyrelu_alpha": {"f": 0.1}, "num_host_args": {"i": "0"}, "dilations": {"list": {"i": ["1", "1", "1", "1"]}}}}, {"name": "PartitionedCall/model_263/tf.concat_5/concat", "op": "ConcatV2", "input": ["PartitionedCall/model_263/tf.nn.leaky_relu_26/LeakyRelu", "PartitionedCall/model_263/tf.nn.leaky_relu_24/LeakyRelu", "PartitionedCall/model_263/tf.concat_5/concat/axis"], "attr": {"T": {"type": "DT_FLOAT"}, "N": {"i": "2"}, "Tidx": {"type": "DT_INT32"}}}, {"name": "PartitionedCall/model_263/tf.nn.leaky_relu_27/LeakyRelu", "op": "_FusedConv2D", "input": ["PartitionedCall/model_263/tf.concat_5/concat", "unknown_51", "unknown_52"], "device": "/device:CPU:0", "attr": {"explicit_paddings": {"list": {}}, "TArgs": {"list": {"type": ["DT_FLOAT"]}}, "num_args": {"i": "1"}, "fused_ops": {"list": {"s": ["Qmlhc0FkZA==", "TGVha3lSZWx1"]}}, "use_cudnn_on_gpu": {"b": true}, "padding": {"s": "U0FNRQ=="}, "strides": {"list": {"i": ["1", "1", "1", "1"]}}, "T": {"type": "DT_FLOAT"}, "data_format": {"s": "TkhXQw=="}, "filter_format": {"s": "SFdJTw=="}, "epsilon": {"f": 0.0}, "leakyrelu_alpha": {"f": 0.1}, "num_host_args": {"i": "0"}, "dilations": {"list": {"i": ["1", "1", "1", "1"]}}}}, {"name": "PartitionedCall/model_263/tf.nn.leaky_relu_28/LeakyRelu", "op": "_FusedConv2D", "input": ["PartitionedCall/model_263/tf.nn.leaky_relu_27/LeakyRelu", "unknown_53", "unknown_54"], "device": "/device:CPU:0", "attr": {"num_args": {"i": "1"}, "TArgs": {"list": {"type": ["DT_FLOAT"]}}, "explicit_paddings": {"list": {}}, "fused_ops": {"list": {"s": ["Qmlhc0FkZA==", "TGVha3lSZWx1"]}}, "use_cudnn_on_gpu": {"b": true}, "padding": {"s": "U0FNRQ=="}, "strides": {"list": {"i": ["1", "1", "1", "1"]}}, "T": {"type": "DT_FLOAT"}, "data_format": {"s": "TkhXQw=="}, "filter_format": {"s": "SFdJTw=="}, "epsilon": {"f": 0.0}, "leakyrelu_alpha": {"f": 0.1}, "num_host_args": {"i": "0"}, "dilations": {"list": {"i": ["1", "1", "1", "1"]}}}}, {"name": "PartitionedCall/model_263/tf.compat.v1.image.resize_nearest_neighbor/ResizeNearestNeighbor", "op": "ResizeNearestNeighbor", "input": ["PartitionedCall/model_263/tf.nn.leaky_relu_28/LeakyRelu", "PartitionedCall/model_263/tf.compat.v1.image.resize_nearest_neighbor/ResizeNearestNeighbor/size"], "attr": {"T": {"type": "DT_FLOAT"}, "half_pixel_centers": {"b": false}, "align_corners": {"b": false}}}, {"name": "PartitionedCall/model_263/tf.concat_6/concat", "op": "ConcatV2", "input": ["PartitionedCall/model_263/tf.nn.leaky_relu_18/LeakyRelu", "PartitionedCall/model_263/tf.compat.v1.image.resize_nearest_neighbor/ResizeNearestNeighbor", "PartitionedCall/model_263/tf.concat_6/concat/axis"], "attr": {"T": {"type": "DT_FLOAT"}, "N": {"i": "2"}, "Tidx": {"type": "DT_INT32"}}}, {"name": "PartitionedCall/model_263/tf.nn.leaky_relu_30/LeakyRelu", "op": "_FusedConv2D", "input": ["PartitionedCall/model_263/tf.concat_6/concat", "unknown_57", "unknown_58"], "device": "/device:CPU:0", "attr": {"num_args": {"i": "1"}, "TArgs": {"list": {"type": ["DT_FLOAT"]}}, "explicit_paddings": {"list": {}}, "fused_ops": {"list": {"s": ["Qmlhc0FkZA==", "TGVha3lSZWx1"]}}, "use_cudnn_on_gpu": {"b": true}, "padding": {"s": "U0FNRQ=="}, "strides": {"list": {"i": ["1", "1", "1", "1"]}}, "T": {"type": "DT_FLOAT"}, "data_format": {"s": "TkhXQw=="}, "epsilon": {"f": 0.0}, "filter_format": {"s": "SFdJTw=="}, "leakyrelu_alpha": {"f": 0.1}, "num_host_args": {"i": "0"}, "dilations": {"list": {"i": ["1", "1", "1", "1"]}}}}, {"name": "PartitionedCall/model_263/tf.nn.leaky_relu_29/LeakyRelu", "op": "_FusedConv2D", "input": ["PartitionedCall/model_263/tf.concat_6/concat", "unknown_61", "unknown_63"], "device": "/device:CPU:0", "attr": {"explicit_paddings": {"list": {}}, "TArgs": {"list": {"type": ["DT_FLOAT"]}}, "num_args": {"i": "1"}, "fused_ops": {"list": {"s": ["Qmlhc0FkZA==", "TGVha3lSZWx1"]}}, "padding": {"s": "U0FNRQ=="}, "use_cudnn_on_gpu": {"b": true}, "strides": {"list": {"i": ["1", "1", "1", "1"]}}, "T": {"type": "DT_FLOAT"}, "data_format": {"s": "TkhXQw=="}, "epsilon": {"f": 0.0}, "filter_format": {"s": "SFdJTw=="}, "leakyrelu_alpha": {"f": 0.1}, "num_host_args": {"i": "0"}, "dilations": {"list": {"i": ["1", "1", "1", "1"]}}}}, {"name": "PartitionedCall/model_263/tf.nn.leaky_relu_31/LeakyRelu", "op": "_FusedConv2D", "input": ["PartitionedCall/model_263/tf.nn.leaky_relu_30/LeakyRelu", "unknown_59", "unknown_60"], "device": "/device:CPU:0", "attr": {"num_args": {"i": "1"}, "TArgs": {"list": {"type": ["DT_FLOAT"]}}, "explicit_paddings": {"list": {}}, "fused_ops": {"list": {"s": ["Qmlhc0FkZA==", "TGVha3lSZWx1"]}}, "use_cudnn_on_gpu": {"b": true}, "padding": {"s": "U0FNRQ=="}, "strides": {"list": {"i": ["1", "1", "1", "1"]}}, "T": {"type": "DT_FLOAT"}, "data_format": {"s": "TkhXQw=="}, "filter_format": {"s": "SFdJTw=="}, "epsilon": {"f": 0.0}, "leakyrelu_alpha": {"f": 0.1}, "num_host_args": {"i": "0"}, "dilations": {"list": {"i": ["1", "1", "1", "1"]}}}}, {"name": "PartitionedCall/model_263/tf.nn.leaky_relu_32/LeakyRelu", "op": "_FusedConv2D", "input": ["PartitionedCall/model_263/tf.nn.leaky_relu_31/LeakyRelu", "unknown_62", "unknown_64"], "device": "/device:CPU:0", "attr": {"explicit_paddings": {"list": {}}, "TArgs": {"list": {"type": ["DT_FLOAT"]}}, "num_args": {"i": "1"}, "fused_ops": {"list": {"s": ["Qmlhc0FkZA==", "TGVha3lSZWx1"]}}, "use_cudnn_on_gpu": {"b": true}, "padding": {"s": "U0FNRQ=="}, "strides": {"list": {"i": ["1", "1", "1", "1"]}}, "T": {"type": "DT_FLOAT"}, "data_format": {"s": "TkhXQw=="}, "filter_format": {"s": "SFdJTw=="}, "epsilon": {"f": 0.0}, "leakyrelu_alpha": {"f": 0.1}, "num_host_args": {"i": "0"}, "dilations": {"list": {"i": ["1", "1", "1", "1"]}}}}, {"name": "PartitionedCall/model_263/tf.concat_7/concat", "op": "ConcatV2", "input": ["PartitionedCall/model_263/tf.nn.leaky_relu_32/LeakyRelu", "PartitionedCall/model_263/tf.nn.leaky_relu_31/LeakyRelu", "PartitionedCall/model_263/tf.nn.leaky_relu_30/LeakyRelu", "PartitionedCall/model_263/tf.nn.leaky_relu_29/LeakyRelu", "PartitionedCall/model_263/tf.concat_7/concat/axis"], "attr": {"T": {"type": "DT_FLOAT"}, "N": {"i": "4"}, "Tidx": {"type": "DT_INT32"}}}, {"name": "PartitionedCall/model_263/tf.nn.leaky_relu_33/LeakyRelu", "op": "_FusedConv2D", "input": ["PartitionedCall/model_263/tf.concat_7/concat", "unknown_65", "unknown_66"], "device": "/device:CPU:0", "attr": {"num_args": {"i": "1"}, "TArgs": {"list": {"type": ["DT_FLOAT"]}}, "explicit_paddings": {"list": {}}, "fused_ops": {"list": {"s": ["Qmlhc0FkZA==", "TGVha3lSZWx1"]}}, "padding": {"s": "U0FNRQ=="}, "use_cudnn_on_gpu": {"b": true}, "strides": {"list": {"i": ["1", "1", "1", "1"]}}, "T": {"type": "DT_FLOAT"}, "data_format": {"s": "TkhXQw=="}, "filter_format": {"s": "SFdJTw=="}, "epsilon": {"f": 0.0}, "leakyrelu_alpha": {"f": 0.1}, "num_host_args": {"i": "0"}, "dilations": {"list": {"i": ["1", "1", "1", "1"]}}}}, {"name": "PartitionedCall/model_263/tf.nn.leaky_relu_34/LeakyRelu", "op": "_FusedConv2D", "input": ["PartitionedCall/model_263/tf.nn.leaky_relu_33/LeakyRelu", "unknown_67", "unknown_68"], "device": "/device:CPU:0", "attr": {"explicit_paddings": {"list": {}}, "TArgs": {"list": {"type": ["DT_FLOAT"]}}, "num_args": {"i": "1"}, "fused_ops": {"list": {"s": ["Qmlhc0FkZA==", "TGVha3lSZWx1"]}}, "use_cudnn_on_gpu": {"b": true}, "padding": {"s": "U0FNRQ=="}, "strides": {"list": {"i": ["1", "1", "1", "1"]}}, "T": {"type": "DT_FLOAT"}, "data_format": {"s": "TkhXQw=="}, "epsilon": {"f": 0.0}, "filter_format": {"s": "SFdJTw=="}, "leakyrelu_alpha": {"f": 0.1}, "num_host_args": {"i": "0"}, "dilations": {"list": {"i": ["1", "1", "1", "1"]}}}}, {"name": "PartitionedCall/model_263/tf.compat.v1.image.resize_nearest_neighbor_1/ResizeNearestNeighbor", "op": "ResizeNearestNeighbor", "input": ["PartitionedCall/model_263/tf.nn.leaky_relu_34/LeakyRelu", "PartitionedCall/model_263/tf.compat.v1.image.resize_nearest_neighbor_1/ResizeNearestNeighbor/size"], "attr": {"T": {"type": "DT_FLOAT"}, "align_corners": {"b": false}, "half_pixel_centers": {"b": false}}}, {"name": "PartitionedCall/model_263/tf.concat_8/concat", "op": "ConcatV2", "input": ["PartitionedCall/model_263/tf.nn.leaky_relu_12/LeakyRelu", "PartitionedCall/model_263/tf.compat.v1.image.resize_nearest_neighbor_1/ResizeNearestNeighbor", "PartitionedCall/model_263/tf.concat_8/concat/axis"], "attr": {"T": {"type": "DT_FLOAT"}, "N": {"i": "2"}, "Tidx": {"type": "DT_INT32"}}}, {"name": "PartitionedCall/model_263/tf.nn.leaky_relu_36/LeakyRelu", "op": "_FusedConv2D", "input": ["PartitionedCall/model_263/tf.concat_8/concat", "unknown_71", "unknown_72"], "device": "/device:CPU:0", "attr": {"explicit_paddings": {"list": {}}, "TArgs": {"list": {"type": ["DT_FLOAT"]}}, "num_args": {"i": "1"}, "fused_ops": {"list": {"s": ["Qmlhc0FkZA==", "TGVha3lSZWx1"]}}, "use_cudnn_on_gpu": {"b": true}, "padding": {"s": "U0FNRQ=="}, "strides": {"list": {"i": ["1", "1", "1", "1"]}}, "T": {"type": "DT_FLOAT"}, "data_format": {"s": "TkhXQw=="}, "filter_format": {"s": "SFdJTw=="}, "epsilon": {"f": 0.0}, "leakyrelu_alpha": {"f": 0.1}, "num_host_args": {"i": "0"}, "dilations": {"list": {"i": ["1", "1", "1", "1"]}}}}, {"name": "PartitionedCall/model_263/tf.nn.leaky_relu_35/LeakyRelu", "op": "_FusedConv2D", "input": ["PartitionedCall/model_263/tf.concat_8/concat", "unknown_75", "unknown_77"], "device": "/device:CPU:0", "attr": {"explicit_paddings": {"list": {}}, "TArgs": {"list": {"type": ["DT_FLOAT"]}}, "num_args": {"i": "1"}, "fused_ops": {"list": {"s": ["Qmlhc0FkZA==", "TGVha3lSZWx1"]}}, "use_cudnn_on_gpu": {"b": true}, "padding": {"s": "U0FNRQ=="}, "strides": {"list": {"i": ["1", "1", "1", "1"]}}, "T": {"type": "DT_FLOAT"}, "data_format": {"s": "TkhXQw=="}, "filter_format": {"s": "SFdJTw=="}, "epsilon": {"f": 0.0}, "leakyrelu_alpha": {"f": 0.1}, "num_host_args": {"i": "0"}, "dilations": {"list": {"i": ["1", "1", "1", "1"]}}}}, {"name": "PartitionedCall/model_263/tf.nn.leaky_relu_37/LeakyRelu", "op": "_FusedConv2D", "input": ["PartitionedCall/model_263/tf.nn.leaky_relu_36/LeakyRelu", "unknown_73", "unknown_74"], "device": "/device:CPU:0", "attr": {"num_args": {"i": "1"}, "TArgs": {"list": {"type": ["DT_FLOAT"]}}, "explicit_paddings": {"list": {}}, "fused_ops": {"list": {"s": ["Qmlhc0FkZA==", "TGVha3lSZWx1"]}}, "use_cudnn_on_gpu": {"b": true}, "padding": {"s": "U0FNRQ=="}, "strides": {"list": {"i": ["1", "1", "1", "1"]}}, "T": {"type": "DT_FLOAT"}, "data_format": {"s": "TkhXQw=="}, "filter_format": {"s": "SFdJTw=="}, "epsilon": {"f": 0.0}, "leakyrelu_alpha": {"f": 0.1}, "num_host_args": {"i": "0"}, "dilations": {"list": {"i": ["1", "1", "1", "1"]}}}}, {"name": "PartitionedCall/model_263/tf.nn.leaky_relu_38/LeakyRelu", "op": "_FusedConv2D", "input": ["PartitionedCall/model_263/tf.nn.leaky_relu_37/LeakyRelu", "unknown_76", "unknown_78"], "device": "/device:CPU:0", "attr": {"num_args": {"i": "1"}, "TArgs": {"list": {"type": ["DT_FLOAT"]}}, "explicit_paddings": {"list": {}}, "fused_ops": {"list": {"s": ["Qmlhc0FkZA==", "TGVha3lSZWx1"]}}, "use_cudnn_on_gpu": {"b": true}, "padding": {"s": "U0FNRQ=="}, "strides": {"list": {"i": ["1", "1", "1", "1"]}}, "T": {"type": "DT_FLOAT"}, "data_format": {"s": "TkhXQw=="}, "filter_format": {"s": "SFdJTw=="}, "epsilon": {"f": 0.0}, "leakyrelu_alpha": {"f": 0.1}, "num_host_args": {"i": "0"}, "dilations": {"list": {"i": ["1", "1", "1", "1"]}}}}, {"name": "PartitionedCall/model_263/tf.concat_9/concat", "op": "ConcatV2", "input": ["PartitionedCall/model_263/tf.nn.leaky_relu_38/LeakyRelu", "PartitionedCall/model_263/tf.nn.leaky_relu_37/LeakyRelu", "PartitionedCall/model_263/tf.nn.leaky_relu_36/LeakyRelu", "PartitionedCall/model_263/tf.nn.leaky_relu_35/LeakyRelu", "PartitionedCall/model_263/tf.concat_9/concat/axis"], "attr": {"T": {"type": "DT_FLOAT"}, "N": {"i": "4"}, "Tidx": {"type": "DT_INT32"}}}, {"name": "PartitionedCall/model_263/tf.nn.leaky_relu_39/LeakyRelu", "op": "_FusedConv2D", "input": ["PartitionedCall/model_263/tf.concat_9/concat", "unknown_79", "unknown_80"], "device": "/device:CPU:0", "attr": {"num_args": {"i": "1"}, "TArgs": {"list": {"type": ["DT_FLOAT"]}}, "explicit_paddings": {"list": {}}, "fused_ops": {"list": {"s": ["Qmlhc0FkZA==", "TGVha3lSZWx1"]}}, "use_cudnn_on_gpu": {"b": true}, "padding": {"s": "U0FNRQ=="}, "strides": {"list": {"i": ["1", "1", "1", "1"]}}, "T": {"type": "DT_FLOAT"}, "data_format": {"s": "TkhXQw=="}, "epsilon": {"f": 0.0}, "filter_format": {"s": "SFdJTw=="}, "leakyrelu_alpha": {"f": 0.1}, "num_host_args": {"i": "0"}, "dilations": {"list": {"i": ["1", "1", "1", "1"]}}}}, {"name": "PartitionedCall/model_263/tf.nn.leaky_relu_41/LeakyRelu", "op": "_FusedConv2D", "input": ["PartitionedCall/model_263/tf.nn.leaky_relu_39/LeakyRelu", "unknown_109", "unknown_112"], "device": "/device:CPU:0", "attr": {"num_args": {"i": "1"}, "TArgs": {"list": {"type": ["DT_FLOAT"]}}, "explicit_paddings": {"list": {}}, "fused_ops": {"list": {"s": ["Qmlhc0FkZA==", "TGVha3lSZWx1"]}}, "padding": {"s": "U0FNRQ=="}, "use_cudnn_on_gpu": {"b": true}, "strides": {"list": {"i": ["1", "1", "1", "1"]}}, "T": {"type": "DT_FLOAT"}, "data_format": {"s": "TkhXQw=="}, "filter_format": {"s": "SFdJTw=="}, "epsilon": {"f": 0.0}, "leakyrelu_alpha": {"f": 0.1}, "num_host_args": {"i": "0"}, "dilations": {"list": {"i": ["1", "1", "1", "1"]}}}}, {"name": "PartitionedCall/model_263/tf.compat.v1.pad_2/Pad", "op": "Pad", "input": ["PartitionedCall/model_263/tf.nn.leaky_relu_39/LeakyRelu", "unknown_81"], "attr": {"T": {"type": "DT_FLOAT"}, "Tpaddings": {"type": "DT_INT32"}}}, {"name": "PartitionedCall/model_263/tf.math.add_42/Add", "op": "_FusedConv2D", "input": ["PartitionedCall/model_263/tf.nn.leaky_relu_41/LeakyRelu", "unknown_115", "unknown_118"], "device": "/device:CPU:0", "attr": {"num_args": {"i": "1"}, "TArgs": {"list": {"type": ["DT_FLOAT"]}}, "explicit_paddings": {"list": {}}, "fused_ops": {"list": {"s": ["Qmlhc0FkZA=="]}}, "padding": {"s": "U0FNRQ=="}, "use_cudnn_on_gpu": {"b": true}, "strides": {"list": {"i": ["1", "1", "1", "1"]}}, "T": {"type": "DT_FLOAT"}, "data_format": {"s": "TkhXQw=="}, "epsilon": {"f": 0.0}, "filter_format": {"s": "SFdJTw=="}, "leakyrelu_alpha": {"f": 0.2}, "num_host_args": {"i": "0"}, "dilations": {"list": {"i": ["1", "1", "1", "1"]}}}}, {"name": "PartitionedCall/model_263/tf.nn.leaky_relu_40/LeakyRelu", "op": "_FusedConv2D", "input": ["PartitionedCall/model_263/tf.compat.v1.pad_2/Pad", "unknown_82", "unknown_83"], "device": "/device:CPU:0", "attr": {"explicit_paddings": {"list": {}}, "TArgs": {"list": {"type": ["DT_FLOAT"]}}, "num_args": {"i": "1"}, "fused_ops": {"list": {"s": ["Qmlhc0FkZA==", "TGVha3lSZWx1"]}}, "padding": {"s": "VkFMSUQ="}, "use_cudnn_on_gpu": {"b": true}, "strides": {"list": {"i": ["1", "2", "2", "1"]}}, "T": {"type": "DT_FLOAT"}, "data_format": {"s": "TkhXQw=="}, "epsilon": {"f": 0.0}, "filter_format": {"s": "SFdJTw=="}, "leakyrelu_alpha": {"f": 0.1}, "num_host_args": {"i": "0"}, "dilations": {"list": {"i": ["1", "1", "1", "1"]}}}}, {"name": "PartitionedCall/model_263/tf.compat.v1.transpose_2/transpose", "op": "Transpose", "input": ["PartitionedCall/model_263/tf.math.add_42/Add", "PartitionedCall/model_263/tf.compat.v1.transpose_2/transpose/perm"], "attr": {"T": {"type": "DT_FLOAT"}, "Tperm": {"type": "DT_INT32"}}}, {"name": "PartitionedCall/model_263/tf.concat_10/concat", "op": "ConcatV2", "input": ["PartitionedCall/model_263/tf.nn.leaky_relu_40/LeakyRelu", "PartitionedCall/model_263/tf.nn.leaky_relu_33/LeakyRelu", "PartitionedCall/model_263/tf.concat_10/concat/axis"], "attr": {"T": {"type": "DT_FLOAT"}, "N": {"i": "2"}, "Tidx": {"type": "DT_INT32"}}}, {"name": "PartitionedCall/model_263/tf.reshape_2/Reshape", "op": "Reshape", "input": ["PartitionedCall/model_263/tf.compat.v1.transpose_2/transpose", "PartitionedCall/model_263/tf.reshape_2/Reshape/shape"], "attr": {"T": {"type": "DT_FLOAT"}, "Tshape": {"type": "DT_INT32"}}}, {"name": "PartitionedCall/model_263/tf.nn.leaky_relu_42/LeakyRelu", "op": "_FusedConv2D", "input": ["PartitionedCall/model_263/tf.concat_10/concat", "unknown_88", "unknown_90"], "device": "/device:CPU:0", "attr": {"num_args": {"i": "1"}, "TArgs": {"list": {"type": ["DT_FLOAT"]}}, "explicit_paddings": {"list": {}}, "fused_ops": {"list": {"s": ["Qmlhc0FkZA==", "TGVha3lSZWx1"]}}, "padding": {"s": "U0FNRQ=="}, "use_cudnn_on_gpu": {"b": true}, "strides": {"list": {"i": ["1", "1", "1", "1"]}}, "T": {"type": "DT_FLOAT"}, "data_format": {"s": "TkhXQw=="}, "epsilon": {"f": 0.0}, "filter_format": {"s": "SFdJTw=="}, "leakyrelu_alpha": {"f": 0.1}, "num_host_args": {"i": "0"}, "dilations": {"list": {"i": ["1", "1", "1", "1"]}}}}, {"name": "PartitionedCall/model_263/tf.nn.leaky_relu_43/LeakyRelu", "op": "_FusedConv2D", "input": ["PartitionedCall/model_263/tf.concat_10/concat", "unknown_84", "unknown_85"], "device": "/device:CPU:0", "attr": {"num_args": {"i": "1"}, "TArgs": {"list": {"type": ["DT_FLOAT"]}}, "explicit_paddings": {"list": {}}, "fused_ops": {"list": {"s": ["Qmlhc0FkZA==", "TGVha3lSZWx1"]}}, "use_cudnn_on_gpu": {"b": true}, "padding": {"s": "U0FNRQ=="}, "strides": {"list": {"i": ["1", "1", "1", "1"]}}, "T": {"type": "DT_FLOAT"}, "data_format": {"s": "TkhXQw=="}, "filter_format": {"s": "SFdJTw=="}, "epsilon": {"f": 0.0}, "leakyrelu_alpha": {"f": 0.1}, "num_host_args": {"i": "0"}, "dilations": {"list": {"i": ["1", "1", "1", "1"]}}}}, {"name": "PartitionedCall/model_263/tf.compat.v1.transpose_5/transpose", "op": "Transpose", "input": ["PartitionedCall/model_263/tf.reshape_2/Reshape", "PartitionedCall/model_263/tf.compat.v1.transpose_5/transpose/perm"], "attr": {"T": {"type": "DT_FLOAT"}, "Tperm": {"type": "DT_INT32"}}}, {"name": "PartitionedCall/model_263/tf.nn.leaky_relu_44/LeakyRelu", "op": "_FusedConv2D", "input": ["PartitionedCall/model_263/tf.nn.leaky_relu_43/LeakyRelu", "unknown_86", "unknown_87"], "device": "/device:CPU:0", "attr": {"num_args": {"i": "1"}, "TArgs": {"list": {"type": ["DT_FLOAT"]}}, "explicit_paddings": {"list": {}}, "fused_ops": {"list": {"s": ["Qmlhc0FkZA==", "TGVha3lSZWx1"]}}, "use_cudnn_on_gpu": {"b": true}, "padding": {"s": "U0FNRQ=="}, "strides": {"list": {"i": ["1", "1", "1", "1"]}}, "T": {"type": "DT_FLOAT"}, "data_format": {"s": "TkhXQw=="}, "filter_format": {"s": "SFdJTw=="}, "epsilon": {"f": 0.0}, "leakyrelu_alpha": {"f": 0.1}, "num_host_args": {"i": "0"}, "dilations": {"list": {"i": ["1", "1", "1", "1"]}}}}, {"name": "PartitionedCall/model_263/tf.math.sigmoid/Sigmoid", "op": "Sigmoid", "input": ["PartitionedCall/model_263/tf.compat.v1.transpose_5/transpose"], "attr": {"T": {"type": "DT_FLOAT"}}}, {"name": "PartitionedCall/model_263/tf.nn.leaky_relu_45/LeakyRelu", "op": "_FusedConv2D", "input": ["PartitionedCall/model_263/tf.nn.leaky_relu_44/LeakyRelu", "unknown_89", "unknown_91"], "device": "/device:CPU:0", "attr": {"num_args": {"i": "1"}, "TArgs": {"list": {"type": ["DT_FLOAT"]}}, "explicit_paddings": {"list": {}}, "fused_ops": {"list": {"s": ["Qmlhc0FkZA==", "TGVha3lSZWx1"]}}, "use_cudnn_on_gpu": {"b": true}, "padding": {"s": "U0FNRQ=="}, "strides": {"list": {"i": ["1", "1", "1", "1"]}}, "T": {"type": "DT_FLOAT"}, "data_format": {"s": "TkhXQw=="}, "epsilon": {"f": 0.0}, "filter_format": {"s": "SFdJTw=="}, "leakyrelu_alpha": {"f": 0.1}, "num_host_args": {"i": "0"}, "dilations": {"list": {"i": ["1", "1", "1", "1"]}}}}, {"name": "PartitionedCall/model_263/tf.split/split", "op": "SplitV", "input": ["PartitionedCall/model_263/tf.math.sigmoid/Sigmoid", "PartitionedCall/model_263/tf.split/Const", "PartitionedCall/model_263/tf.split/split/split_dim"], "attr": {"T": {"type": "DT_FLOAT"}, "Tlen": {"type": "DT_INT32"}, "num_split": {"i": "3"}}}, {"name": "PartitionedCall/model_263/tf.concat_11/concat", "op": "ConcatV2", "input": ["PartitionedCall/model_263/tf.nn.leaky_relu_45/LeakyRelu", "PartitionedCall/model_263/tf.nn.leaky_relu_44/LeakyRelu", "PartitionedCall/model_263/tf.nn.leaky_relu_43/LeakyRelu", "PartitionedCall/model_263/tf.nn.leaky_relu_42/LeakyRelu", "PartitionedCall/model_263/tf.concat_11/concat/axis"], "attr": {"T": {"type": "DT_FLOAT"}, "N": {"i": "4"}, "Tidx": {"type": "DT_INT32"}}}, {"name": "PartitionedCall/model_263/tf.math.multiply_2/Mul", "op": "Mul", "input": ["PartitionedCall/model_263/tf.split/split", "PartitionedCall/model_263/tf.math.multiply_2/Mul/y"], "attr": {"T": {"type": "DT_FLOAT"}}}, {"name": "PartitionedCall/model_263/tf.math.multiply_3/ArithmeticOptimizer/ReplaceMulWithSquare_Mul", "op": "Square", "input": ["PartitionedCall/model_263/tf.split/split:1"], "attr": {"T": {"type": "DT_FLOAT"}}}, {"name": "PartitionedCall/model_263/tf.nn.leaky_relu_46/LeakyRelu", "op": "_FusedConv2D", "input": ["PartitionedCall/model_263/tf.concat_11/concat", "unknown_92", "unknown_93"], "device": "/device:CPU:0", "attr": {"num_args": {"i": "1"}, "TArgs": {"list": {"type": ["DT_FLOAT"]}}, "explicit_paddings": {"list": {}}, "fused_ops": {"list": {"s": ["Qmlhc0FkZA==", "TGVha3lSZWx1"]}}, "padding": {"s": "U0FNRQ=="}, "use_cudnn_on_gpu": {"b": true}, "strides": {"list": {"i": ["1", "1", "1", "1"]}}, "T": {"type": "DT_FLOAT"}, "data_format": {"s": "TkhXQw=="}, "filter_format": {"s": "SFdJTw=="}, "epsilon": {"f": 0.0}, "leakyrelu_alpha": {"f": 0.1}, "num_host_args": {"i": "0"}, "dilations": {"list": {"i": ["1", "1", "1", "1"]}}}}, {"name": "PartitionedCall/model_263/tf.math.add_48/Add", "op": "AddV2", "input": ["PartitionedCall/model_263/tf.math.multiply_2/Mul", "unknown_123"], "attr": {"T": {"type": "DT_FLOAT"}}}, {"name": "PartitionedCall/model_263/tf.math.multiply_7/Mul", "op": "Mul", "input": ["PartitionedCall/model_263/tf.math.multiply_3/ArithmeticOptimizer/ReplaceMulWithSquare_Mul", "unknown_124"], "attr": {"T": {"type": "DT_FLOAT"}}}, {"name": "PartitionedCall/model_263/tf.nn.leaky_relu_48/LeakyRelu", "op": "_FusedConv2D", "input": ["PartitionedCall/model_263/tf.nn.leaky_relu_46/LeakyRelu", "unknown_108", "unknown_111"], "device": "/device:CPU:0", "attr": {"num_args": {"i": "1"}, "TArgs": {"list": {"type": ["DT_FLOAT"]}}, "explicit_paddings": {"list": {}}, "fused_ops": {"list": {"s": ["Qmlhc0FkZA==", "TGVha3lSZWx1"]}}, "padding": {"s": "U0FNRQ=="}, "use_cudnn_on_gpu": {"b": true}, "strides": {"list": {"i": ["1", "1", "1", "1"]}}, "T": {"type": "DT_FLOAT"}, "data_format": {"s": "TkhXQw=="}, "filter_format": {"s": "SFdJTw=="}, "epsilon": {"f": 0.0}, "leakyrelu_alpha": {"f": 0.1}, "num_host_args": {"i": "0"}, "dilations": {"list": {"i": ["1", "1", "1", "1"]}}}}, {"name": "PartitionedCall/model_263/tf.compat.v1.pad_3/Pad", "op": "Pad", "input": ["PartitionedCall/model_263/tf.nn.leaky_relu_46/LeakyRelu", "unknown_94"], "attr": {"T": {"type": "DT_FLOAT"}, "Tpaddings": {"type": "DT_INT32"}}}, {"name": "PartitionedCall/model_263/tf.concat_12/concat", "op": "ConcatV2", "input": ["PartitionedCall/model_263/tf.math.add_48/Add", "PartitionedCall/model_263/tf.math.multiply_7/Mul", "PartitionedCall/model_263/tf.split/split:2", "PartitionedCall/model_263/tf.concat_12/concat/axis"], "attr": {"T": {"type": "DT_FLOAT"}, "N": {"i": "3"}, "Tidx": {"type": "DT_INT32"}}}, {"name": "PartitionedCall/model_263/tf.math.add_52/Add", "op": "_FusedConv2D", "input": ["PartitionedCall/model_263/tf.nn.leaky_relu_48/LeakyRelu", "unknown_114", "unknown_117"], "device": "/device:CPU:0", "attr": {"num_args": {"i": "1"}, "TArgs": {"list": {"type": ["DT_FLOAT"]}}, "explicit_paddings": {"list": {}}, "fused_ops": {"list": {"s": ["Qmlhc0FkZA=="]}}, "padding": {"s": "U0FNRQ=="}, "use_cudnn_on_gpu": {"b": true}, "strides": {"list": {"i": ["1", "1", "1", "1"]}}, "T": {"type": "DT_FLOAT"}, "data_format": {"s": "TkhXQw=="}, "filter_format": {"s": "SFdJTw=="}, "epsilon": {"f": 0.0}, "leakyrelu_alpha": {"f": 0.2}, "num_host_args": {"i": "0"}, "dilations": {"list": {"i": ["1", "1", "1", "1"]}}}}, {"name": "PartitionedCall/model_263/tf.nn.leaky_relu_47/LeakyRelu", "op": "_FusedConv2D", "input": ["PartitionedCall/model_263/tf.compat.v1.pad_3/Pad", "unknown_95", "unknown_96"], "device": "/device:CPU:0", "attr": {"explicit_paddings": {"list": {}}, "TArgs": {"list": {"type": ["DT_FLOAT"]}}, "num_args": {"i": "1"}, "fused_ops": {"list": {"s": ["Qmlhc0FkZA==", "TGVha3lSZWx1"]}}, "padding": {"s": "VkFMSUQ="}, "use_cudnn_on_gpu": {"b": true}, "strides": {"list": {"i": ["1", "2", "2", "1"]}}, "T": {"type": "DT_FLOAT"}, "data_format": {"s": "TkhXQw=="}, "epsilon": {"f": 0.0}, "filter_format": {"s": "SFdJTw=="}, "leakyrelu_alpha": {"f": 0.1}, "num_host_args": {"i": "0"}, "dilations": {"list": {"i": ["1", "1", "1", "1"]}}}}, {"name": "PartitionedCall/model_263/tf.reshape_5/Reshape", "op": "Reshape", "input": ["PartitionedCall/model_263/tf.concat_12/concat", "PartitionedCall/model_263/tf.reshape_5/Reshape/shape"], "attr": {"T": {"type": "DT_FLOAT"}, "Tshape": {"type": "DT_INT32"}}}, {"name": "PartitionedCall/model_263/tf.compat.v1.transpose_15/transpose", "op": "Transpose", "input": ["PartitionedCall/model_263/tf.math.add_52/Add", "PartitionedCall/model_263/tf.compat.v1.transpose_15/transpose/perm"], "attr": {"T": {"type": "DT_FLOAT"}, "Tperm": {"type": "DT_INT32"}}}, {"name": "PartitionedCall/model_263/tf.concat_13/concat", "op": "ConcatV2", "input": ["PartitionedCall/model_263/tf.nn.leaky_relu_47/LeakyRelu", "PartitionedCall/model_263/tf.nn.leaky_relu_27/LeakyRelu", "PartitionedCall/model_263/tf.concat_13/concat/axis"], "attr": {"T": {"type": "DT_FLOAT"}, "N": {"i": "2"}, "Tidx": {"type": "DT_INT32"}}}, {"name": "PartitionedCall/model_263/tf.reshape_8/Reshape", "op": "Reshape", "input": ["PartitionedCall/model_263/tf.compat.v1.transpose_15/transpose", "PartitionedCall/model_263/tf.reshape_8/Reshape/shape"], "attr": {"T": {"type": "DT_FLOAT"}, "Tshape": {"type": "DT_INT32"}}}, {"name": "PartitionedCall/model_263/tf.nn.leaky_relu_50/LeakyRelu", "op": "_FusedConv2D", "input": ["PartitionedCall/model_263/tf.concat_13/concat", "unknown_97", "unknown_98"], "device": "/device:CPU:0", "attr": {"num_args": {"i": "1"}, "TArgs": {"list": {"type": ["DT_FLOAT"]}}, "explicit_paddings": {"list": {}}, "fused_ops": {"list": {"s": ["Qmlhc0FkZA==", "TGVha3lSZWx1"]}}, "padding": {"s": "U0FNRQ=="}, "use_cudnn_on_gpu": {"b": true}, "strides": {"list": {"i": ["1", "1", "1", "1"]}}, "T": {"type": "DT_FLOAT"}, "data_format": {"s": "TkhXQw=="}, "epsilon": {"f": 0.0}, "filter_format": {"s": "SFdJTw=="}, "leakyrelu_alpha": {"f": 0.1}, "num_host_args": {"i": "0"}, "dilations": {"list": {"i": ["1", "1", "1", "1"]}}}}, {"name": "PartitionedCall/model_263/tf.nn.leaky_relu_49/LeakyRelu", "op": "_FusedConv2D", "input": ["PartitionedCall/model_263/tf.concat_13/concat", "unknown_101", "unknown_103"], "device": "/device:CPU:0", "attr": {"num_args": {"i": "1"}, "TArgs": {"list": {"type": ["DT_FLOAT"]}}, "explicit_paddings": {"list": {}}, "fused_ops": {"list": {"s": ["Qmlhc0FkZA==", "TGVha3lSZWx1"]}}, "padding": {"s": "U0FNRQ=="}, "use_cudnn_on_gpu": {"b": true}, "strides": {"list": {"i": ["1", "1", "1", "1"]}}, "T": {"type": "DT_FLOAT"}, "data_format": {"s": "TkhXQw=="}, "epsilon": {"f": 0.0}, "filter_format": {"s": "SFdJTw=="}, "leakyrelu_alpha": {"f": 0.1}, "num_host_args": {"i": "0"}, "dilations": {"list": {"i": ["1", "1", "1", "1"]}}}}, {"name": "PartitionedCall/model_263/tf.compat.v1.transpose_18/transpose", "op": "Transpose", "input": ["PartitionedCall/model_263/tf.reshape_8/Reshape", "PartitionedCall/model_263/tf.compat.v1.transpose_18/transpose/perm"], "attr": {"T": {"type": "DT_FLOAT"}, "Tperm": {"type": "DT_INT32"}}}, {"name": "PartitionedCall/model_263/tf.nn.leaky_relu_51/LeakyRelu", "op": "_FusedConv2D", "input": ["PartitionedCall/model_263/tf.nn.leaky_relu_50/LeakyRelu", "unknown_99", "unknown_100"], "device": "/device:CPU:0", "attr": {"num_args": {"i": "1"}, "TArgs": {"list": {"type": ["DT_FLOAT"]}}, "explicit_paddings": {"list": {}}, "fused_ops": {"list": {"s": ["Qmlhc0FkZA==", "TGVha3lSZWx1"]}}, "padding": {"s": "U0FNRQ=="}, "use_cudnn_on_gpu": {"b": true}, "strides": {"list": {"i": ["1", "1", "1", "1"]}}, "T": {"type": "DT_FLOAT"}, "data_format": {"s": "TkhXQw=="}, "filter_format": {"s": "SFdJTw=="}, "epsilon": {"f": 0.0}, "leakyrelu_alpha": {"f": 0.1}, "num_host_args": {"i": "0"}, "dilations": {"list": {"i": ["1", "1", "1", "1"]}}}}, {"name": "PartitionedCall/model_263/tf.math.sigmoid_1/Sigmoid", "op": "Sigmoid", "input": ["PartitionedCall/model_263/tf.compat.v1.transpose_18/transpose"], "attr": {"T": {"type": "DT_FLOAT"}}}, {"name": "PartitionedCall/model_263/tf.nn.leaky_relu_52/LeakyRelu", "op": "_FusedConv2D", "input": ["PartitionedCall/model_263/tf.nn.leaky_relu_51/LeakyRelu", "unknown_102", "unknown_104"], "device": "/device:CPU:0", "attr": {"num_args": {"i": "1"}, "TArgs": {"list": {"type": ["DT_FLOAT"]}}, "explicit_paddings": {"list": {}}, "fused_ops": {"list": {"s": ["Qmlhc0FkZA==", "TGVha3lSZWx1"]}}, "padding": {"s": "U0FNRQ=="}, "use_cudnn_on_gpu": {"b": true}, "strides": {"list": {"i": ["1", "1", "1", "1"]}}, "T": {"type": "DT_FLOAT"}, "data_format": {"s": "TkhXQw=="}, "epsilon": {"f": 0.0}, "filter_format": {"s": "SFdJTw=="}, "leakyrelu_alpha": {"f": 0.1}, "num_host_args": {"i": "0"}, "dilations": {"list": {"i": ["1", "1", "1", "1"]}}}}, {"name": "PartitionedCall/model_263/tf.split_1/split", "op": "SplitV", "input": ["PartitionedCall/model_263/tf.math.sigmoid_1/Sigmoid", "PartitionedCall/model_263/tf.split_1/Const", "PartitionedCall/model_263/tf.split_1/split/split_dim"], "attr": {"T": {"type": "DT_FLOAT"}, "Tlen": {"type": "DT_INT32"}, "num_split": {"i": "3"}}}, {"name": "PartitionedCall/model_263/tf.concat_14/concat", "op": "ConcatV2", "input": ["PartitionedCall/model_263/tf.nn.leaky_relu_52/LeakyRelu", "PartitionedCall/model_263/tf.nn.leaky_relu_51/LeakyRelu", "PartitionedCall/model_263/tf.nn.leaky_relu_50/LeakyRelu", "PartitionedCall/model_263/tf.nn.leaky_relu_49/LeakyRelu", "PartitionedCall/model_263/tf.concat_14/concat/axis"], "attr": {"T": {"type": "DT_FLOAT"}, "N": {"i": "4"}, "Tidx": {"type": "DT_INT32"}}}, {"name": "PartitionedCall/model_263/tf.math.multiply_10/Mul", "op": "Mul", "input": ["PartitionedCall/model_263/tf.split_1/split", "PartitionedCall/model_263/tf.math.multiply_10/Mul/y"], "attr": {"T": {"type": "DT_FLOAT"}}}, {"name": "PartitionedCall/model_263/tf.math.multiply_11/ArithmeticOptimizer/ReplaceMulWithSquare_Mul", "op": "Square", "input": ["PartitionedCall/model_263/tf.split_1/split:1"], "attr": {"T": {"type": "DT_FLOAT"}}}, {"name": "PartitionedCall/model_263/tf.nn.leaky_relu_53/LeakyRelu", "op": "_FusedConv2D", "input": ["PartitionedCall/model_263/tf.concat_14/concat", "unknown_105", "unknown_106"], "device": "/device:CPU:0", "attr": {"explicit_paddings": {"list": {}}, "TArgs": {"list": {"type": ["DT_FLOAT"]}}, "num_args": {"i": "1"}, "fused_ops": {"list": {"s": ["Qmlhc0FkZA==", "TGVha3lSZWx1"]}}, "padding": {"s": "U0FNRQ=="}, "use_cudnn_on_gpu": {"b": true}, "strides": {"list": {"i": ["1", "1", "1", "1"]}}, "T": {"type": "DT_FLOAT"}, "data_format": {"s": "TkhXQw=="}, "epsilon": {"f": 0.0}, "filter_format": {"s": "SFdJTw=="}, "leakyrelu_alpha": {"f": 0.1}, "num_host_args": {"i": "0"}, "dilations": {"list": {"i": ["1", "1", "1", "1"]}}}}, {"name": "PartitionedCall/model_263/tf.math.add_58/Add", "op": "AddV2", "input": ["PartitionedCall/model_263/tf.math.multiply_10/Mul", "unknown_121"], "attr": {"T": {"type": "DT_FLOAT"}}}, {"name": "PartitionedCall/model_263/tf.math.multiply_15/Mul", "op": "Mul", "input": ["PartitionedCall/model_263/tf.math.multiply_11/ArithmeticOptimizer/ReplaceMulWithSquare_Mul", "unknown_122"], "attr": {"T": {"type": "DT_FLOAT"}}}, {"name": "PartitionedCall/model_263/tf.nn.leaky_relu_54/LeakyRelu", "op": "_FusedConv2D", "input": ["PartitionedCall/model_263/tf.nn.leaky_relu_53/LeakyRelu", "unknown_107", "unknown_110"], "device": "/device:CPU:0", "attr": {"num_args": {"i": "1"}, "TArgs": {"list": {"type": ["DT_FLOAT"]}}, "explicit_paddings": {"list": {}}, "fused_ops": {"list": {"s": ["Qmlhc0FkZA==", "TGVha3lSZWx1"]}}, "use_cudnn_on_gpu": {"b": true}, "padding": {"s": "U0FNRQ=="}, "strides": {"list": {"i": ["1", "1", "1", "1"]}}, "T": {"type": "DT_FLOAT"}, "data_format": {"s": "TkhXQw=="}, "filter_format": {"s": "SFdJTw=="}, "epsilon": {"f": 0.0}, "leakyrelu_alpha": {"f": 0.1}, "num_host_args": {"i": "0"}, "dilations": {"list": {"i": ["1", "1", "1", "1"]}}}}, {"name": "PartitionedCall/model_263/tf.concat_15/concat", "op": "ConcatV2", "input": ["PartitionedCall/model_263/tf.math.add_58/Add", "PartitionedCall/model_263/tf.math.multiply_15/Mul", "PartitionedCall/model_263/tf.split_1/split:2", "PartitionedCall/model_263/tf.concat_15/concat/axis"], "attr": {"T": {"type": "DT_FLOAT"}, "N": {"i": "3"}, "Tidx": {"type": "DT_INT32"}}}, {"name": "PartitionedCall/model_263/tf.math.add_61/Add", "op": "_FusedConv2D", "input": ["PartitionedCall/model_263/tf.nn.leaky_relu_54/LeakyRelu", "unknown_113", "unknown_116"], "device": "/device:CPU:0", "attr": {"num_args": {"i": "1"}, "TArgs": {"list": {"type": ["DT_FLOAT"]}}, "explicit_paddings": {"list": {}}, "fused_ops": {"list": {"s": ["Qmlhc0FkZA=="]}}, "use_cudnn_on_gpu": {"b": true}, "padding": {"s": "U0FNRQ=="}, "strides": {"list": {"i": ["1", "1", "1", "1"]}}, "T": {"type": "DT_FLOAT"}, "data_format": {"s": "TkhXQw=="}, "epsilon": {"f": 0.0}, "filter_format": {"s": "SFdJTw=="}, "leakyrelu_alpha": {"f": 0.2}, "num_host_args": {"i": "0"}, "dilations": {"list": {"i": ["1", "1", "1", "1"]}}}}, {"name": "PartitionedCall/model_263/tf.reshape_130/Reshape", "op": "Reshape", "input": ["PartitionedCall/model_263/tf.concat_15/concat", "PartitionedCall/model_263/tf.reshape_130/Reshape/shape"], "attr": {"T": {"type": "DT_FLOAT"}, "Tshape": {"type": "DT_INT32"}}}, {"name": "PartitionedCall/model_263/tf.compat.v1.transpose_147/transpose", "op": "Transpose", "input": ["PartitionedCall/model_263/tf.math.add_61/Add", "PartitionedCall/model_263/tf.compat.v1.transpose_147/transpose/perm"], "attr": {"T": {"type": "DT_FLOAT"}, "Tperm": {"type": "DT_INT32"}}}, {"name": "PartitionedCall/model_263/tf.reshape_133/Reshape", "op": "Reshape", "input": ["PartitionedCall/model_263/tf.compat.v1.transpose_147/transpose", "PartitionedCall/model_263/tf.reshape_133/Reshape/shape"], "attr": {"T": {"type": "DT_FLOAT"}, "Tshape": {"type": "DT_INT32"}}}, {"name": "PartitionedCall/model_263/tf.compat.v1.transpose_150/transpose", "op": "Transpose", "input": ["PartitionedCall/model_263/tf.reshape_133/Reshape", "PartitionedCall/model_263/tf.compat.v1.transpose_150/transpose/perm"], "attr": {"T": {"type": "DT_FLOAT"}, "Tperm": {"type": "DT_INT32"}}}, {"name": "PartitionedCall/model_263/tf.math.sigmoid_2/Sigmoid", "op": "Sigmoid", "input": ["PartitionedCall/model_263/tf.compat.v1.transpose_150/transpose"], "attr": {"T": {"type": "DT_FLOAT"}}}, {"name": "PartitionedCall/model_263/tf.split_2/split", "op": "SplitV", "input": ["PartitionedCall/model_263/tf.math.sigmoid_2/Sigmoid", "PartitionedCall/model_263/tf.split_2/Const", "PartitionedCall/model_263/tf.split_2/split/split_dim"], "attr": {"T": {"type": "DT_FLOAT"}, "Tlen": {"type": "DT_INT32"}, "num_split": {"i": "3"}}}, {"name": "PartitionedCall/model_263/tf.math.multiply_18/Mul", "op": "Mul", "input": ["PartitionedCall/model_263/tf.split_2/split", "PartitionedCall/model_263/tf.math.multiply_18/Mul/y"], "attr": {"T": {"type": "DT_FLOAT"}}}, {"name": "PartitionedCall/model_263/tf.math.multiply_19/ArithmeticOptimizer/ReplaceMulWithSquare_Mul", "op": "Square", "input": ["PartitionedCall/model_263/tf.split_2/split:1"], "attr": {"T": {"type": "DT_FLOAT"}}}, {"name": "PartitionedCall/model_263/tf.math.add_63/Add", "op": "AddV2", "input": ["PartitionedCall/model_263/tf.math.multiply_18/Mul", "unknown_119"], "attr": {"T": {"type": "DT_FLOAT"}}}, {"name": "PartitionedCall/model_263/tf.math.multiply_23/Mul", "op": "Mul", "input": ["PartitionedCall/model_263/tf.math.multiply_19/ArithmeticOptimizer/ReplaceMulWithSquare_Mul", "unknown_120"], "attr": {"T": {"type": "DT_FLOAT"}}}, {"name": "PartitionedCall/model_263/tf.concat_16/concat", "op": "ConcatV2", "input": ["PartitionedCall/model_263/tf.math.add_63/Add", "PartitionedCall/model_263/tf.math.multiply_23/Mul", "PartitionedCall/model_263/tf.split_2/split:2", "PartitionedCall/model_263/tf.concat_16/concat/axis"], "attr": {"T": {"type": "DT_FLOAT"}, "N": {"i": "3"}, "Tidx": {"type": "DT_INT32"}}}, {"name": "PartitionedCall/model_263/tf.reshape_255/Reshape", "op": "Reshape", "input": ["PartitionedCall/model_263/tf.concat_16/concat", "PartitionedCall/model_263/tf.reshape_255/Reshape/shape"], "attr": {"T": {"type": "DT_FLOAT"}, "Tshape": {"type": "DT_INT32"}}}, {"name": "PartitionedCall/model_263/tf.concat_17/concat", "op": "ConcatV2", "input": ["PartitionedCall/model_263/tf.reshape_5/Reshape", "PartitionedCall/model_263/tf.reshape_130/Reshape", "PartitionedCall/model_263/tf.reshape_255/Reshape", "PartitionedCall/model_263/tf.concat_17/concat/axis"], "attr": {"T": {"type": "DT_FLOAT"}, "N": {"i": "3"}, "Tidx": {"type": "DT_INT32"}}}, {"name": "PartitionedCall/model_263/tf.strided_slice/StridedSlice", "op": "StridedSlice", "input": ["PartitionedCall/model_263/tf.concat_17/concat", "unknown_129", "unknown_130", "PartitionedCall/model_263/tf.strided_slice/StridedSlice/strides"], "attr": {"ellipsis_mask": {"i": "0"}, "new_axis_mask": {"i": "0"}, "end_mask": {"i": "3"}, "begin_mask": {"i": "7"}, "T": {"type": "DT_FLOAT"}, "shrink_axis_mask": {"i": "0"}, "Index": {"type": "DT_INT64"}}}, {"name": "PartitionedCall/model_263/tf.strided_slice_2/StridedSlice", "op": "StridedSlice", "input": ["PartitionedCall/model_263/tf.concat_17/concat", "unknown_125", "unknown_126", "PartitionedCall/model_263/tf.strided_slice_2/StridedSlice/strides"], "attr": {"ellipsis_mask": {"i": "0"}, "new_axis_mask": {"i": "0"}, "end_mask": {"i": "3"}, "T": {"type": "DT_FLOAT"}, "begin_mask": {"i": "3"}, "shrink_axis_mask": {"i": "0"}, "Index": {"type": "DT_INT64"}}}, {"name": "PartitionedCall/model_263/tf.strided_slice_1/StridedSlice", "op": "StridedSlice", "input": ["PartitionedCall/model_263/tf.concat_17/concat", "unknown_127", "unknown_128", "PartitionedCall/model_263/tf.strided_slice_1/StridedSlice/strides"], "attr": {"ellipsis_mask": {"i": "0"}, "new_axis_mask": {"i": "0"}, "end_mask": {"i": "3"}, "T": {"type": "DT_FLOAT"}, "begin_mask": {"i": "3"}, "shrink_axis_mask": {"i": "0"}, "Index": {"type": "DT_INT64"}}}, {"name": "PartitionedCall/model_263/tf.linalg.matmul_1/MatMul", "op": "BatchMatMulV2", "input": ["PartitionedCall/model_263/tf.strided_slice/StridedSlice", "unknown_131"], "attr": {"T": {"type": "DT_FLOAT"}, "adj_y": {"b": false}, "grad_x": {"b": false}, "adj_x": {"b": false}, "grad_y": {"b": false}}}, {"name": "PartitionedCall/model_263/tf.math.multiply_27/Mul", "op": "Mul", "input": ["PartitionedCall/model_263/tf.strided_slice_2/StridedSlice", "PartitionedCall/model_263/tf.strided_slice_1/StridedSlice"], "attr": {"T": {"type": "DT_FLOAT"}}}, {"name": "PartitionedCall/model_263/tf.reshape_256/Reshape", "op": "Reshape", "input": ["PartitionedCall/model_263/tf.linalg.matmul_1/MatMul", "PartitionedCall/model_263/tf.reshape_256/Reshape/shape"], "attr": {"T": {"type": "DT_FLOAT"}, "Tshape": {"type": "DT_INT32"}}}, {"name": "PartitionedCall/model_263/tf.math.argmax/ArgMax", "op": "ArgMax", "input": ["PartitionedCall/model_263/tf.math.multiply_27/Mul", "PartitionedCall/model_263/tf.math.argmax/ArgMax/dimension"], "attr": {"T": {"type": "DT_FLOAT"}, "output_type": {"type": "DT_INT64"}, "Tidx": {"type": "DT_INT32"}}}, {"name": "PartitionedCall/model_263/tf.math.reduce_max_1/Max", "op": "Max", "input": ["PartitionedCall/model_263/tf.math.multiply_27/Mul", "PartitionedCall/model_263/tf.math.reduce_max_1/Max/reduction_indices"], "attr": {"T": {"type": "DT_FLOAT"}, "Tidx": {"type": "DT_INT32"}, "keep_dims": {"b": true}}}, {"name": "PartitionedCall/model_263/tf.expand_dims/ExpandDims", "op": "ExpandDims", "input": ["PartitionedCall/model_263/tf.math.argmax/ArgMax", "PartitionedCall/model_263/tf.expand_dims/ExpandDims/dim"], "attr": {"T": {"type": "DT_INT64"}, "Tdim": {"type": "DT_INT32"}}}, {"name": "PartitionedCall/model_263/tf.reshape_258/Reshape", "op": "Reshape", "input": ["PartitionedCall/model_263/tf.math.reduce_max_1/Max", "PartitionedCall/model_263/tf.reshape_258/Reshape/shape"], "attr": {"T": {"type": "DT_FLOAT"}, "Tshape": {"type": "DT_INT32"}}}, {"name": "PartitionedCall/model_263/tf.compat.v1.transpose_277/transpose", "op": "Transpose", "input": ["PartitionedCall/model_263/tf.math.reduce_max_1/Max", "PartitionedCall/model_263/tf.compat.v1.transpose_277/transpose/perm"], "attr": {"T": {"type": "DT_FLOAT"}, "Tperm": {"type": "DT_INT32"}}}, {"name": "PartitionedCall/model_263/tf.reshape_257/Reshape", "op": "Reshape", "input": ["PartitionedCall/model_263/tf.expand_dims/ExpandDims", "PartitionedCall/model_263/tf.reshape_257/Reshape/shape"], "attr": {"T": {"type": "DT_INT64"}, "Tshape": {"type": "DT_INT32"}}}, {"name": "PartitionedCall/model_263/tf.cast/Cast", "op": "Cast", "input": ["PartitionedCall/model_263/tf.expand_dims/ExpandDims"], "attr": {"SrcT": {"type": "DT_INT64"}, "DstT": {"type": "DT_FLOAT"}, "Truncate": {"b": false}}}, {"name": "PartitionedCall/model_263/tf.compat.v1.squeeze_9/Squeeze", "op": "Squeeze", "input": ["PartitionedCall/model_263/tf.compat.v1.transpose_277/transpose"], "attr": {"T": {"type": "DT_FLOAT"}, "squeeze_dims": {"list": {"i": ["0"]}}}}, {"name": "PartitionedCall/model_263/tf.math.multiply_30/Mul", "op": "Mul", "input": ["PartitionedCall/model_263/tf.cast/Cast", "PartitionedCall/model_263/tf.math.multiply_30/Mul/y"], "attr": {"T": {"type": "DT_FLOAT"}}}, {"name": "PartitionedCall/model_263/tf.compat.v1.squeeze_10/Squeeze", "op": "Squeeze", "input": ["PartitionedCall/model_263/tf.compat.v1.squeeze_9/Squeeze"], "attr": {"T": {"type": "DT_FLOAT"}, "squeeze_dims": {"list": {"i": ["0"]}}}}, {"name": "PartitionedCall/model_263/tf.math.add_64/Add", "op": "AddV2", "input": ["PartitionedCall/model_263/tf.linalg.matmul_1/MatMul", "PartitionedCall/model_263/tf.math.multiply_30/Mul"], "attr": {"T": {"type": "DT_FLOAT"}}}, {"name": "PartitionedCall/model_263/tf.compat.v1.squeeze_8/Squeeze", "op": "Squeeze", "input": ["PartitionedCall/model_263/tf.math.add_64/Add"], "attr": {"T": {"type": "DT_FLOAT"}, "squeeze_dims": {"list": {"i": ["0"]}}}}, {"name": "PartitionedCall/model_263/nms_layer/non_max_suppression/NonMaxSuppressionV4", "op": "NonMaxSuppressionV4", "input": ["PartitionedCall/model_263/tf.compat.v1.squeeze_8/Squeeze", "PartitionedCall/model_263/tf.compat.v1.squeeze_10/Squeeze", "PartitionedCall/model_263/tf.compat.v1.squeeze_7/Squeeze", "unknown_139", "unknown_140"], "attr": {"T": {"type": "DT_FLOAT"}, "T_threshold": {"type": "DT_FLOAT"}, "pad_to_max_output_size": {"b": true}}}, {"name": "PartitionedCall/model_263/tf.cast_1/Cast", "op": "Cast", "input": ["PartitionedCall/model_263/nms_layer/non_max_suppression/NonMaxSuppressionV4"], "attr": {"SrcT": {"type": "DT_INT32"}, "DstT": {"type": "DT_INT64"}, "Truncate": {"b": false}}}, {"name": "ConstantFolding/PartitionedCall/model_263/tf.compat.v1.transpose_278/transpose/a_const_axis", "op": "Const", "input": ["^PartitionedCall/model_263/tf.cast_1/Cast"], "attr": {"value": {"tensor": {"dtype": "DT_INT32", "tensorShape": {}}}, "dtype": {"type": "DT_INT32"}}}, {"name": "PartitionedCall/model_263/tf.compat.v1.transpose_278/transpose/a", "op": "ExpandDims", "input": ["PartitionedCall/model_263/tf.cast_1/Cast", "ConstantFolding/PartitionedCall/model_263/tf.compat.v1.transpose_278/transpose/a_const_axis"], "attr": {"T": {"type": "DT_INT64"}, "Tdim": {"type": "DT_INT32"}}}, {"name": "PartitionedCall/model_263/tf.compat.v1.transpose_278/transpose", "op": "Transpose", "input": ["PartitionedCall/model_263/tf.compat.v1.transpose_278/transpose/a", "PartitionedCall/model_263/tf.compat.v1.transpose_278/transpose/perm"], "attr": {"T": {"type": "DT_INT64"}, "Tperm": {"type": "DT_INT32"}}}, {"name": "PartitionedCall/model_263/tf.compat.v1.pad_4/PadV2", "op": "PadV2", "input": ["PartitionedCall/model_263/tf.compat.v1.transpose_278/transpose", "unknown_141", "unknown_142"], "attr": {"T": {"type": "DT_INT64"}, "Tpaddings": {"type": "DT_INT32"}}}, {"name": "PartitionedCall/model_263/tf.compat.v1.pad_5/PadV2", "op": "PadV2", "input": ["PartitionedCall/model_263/tf.compat.v1.pad_4/PadV2", "unknown_141", "unknown_143"], "attr": {"T": {"type": "DT_INT64"}, "Tpaddings": {"type": "DT_INT32"}}}, {"name": "PartitionedCall/model_263/tf.compat.v1.gather_1/GatherV2", "op": "GatherV2", "input": ["PartitionedCall/model_263/tf.compat.v1.pad_5/PadV2", "PartitionedCall/model_263/tf.compat.v1.gather_1/GatherV2/indices", "PartitionedCall/model_263/tf.compat.v1.gather_1/GatherV2/axis"], "attr": {"Tparams": {"type": "DT_INT64"}, "Taxis": {"type": "DT_INT32"}, "Tindices": {"type": "DT_INT32"}, "batch_dims": {"i": "0"}}}, {"name": "PartitionedCall/model_263/tf.compat.v1.gather/GatherV2", "op": "GatherV2", "input": ["PartitionedCall/model_263/tf.compat.v1.pad_5/PadV2", "PartitionedCall/model_263/tf.compat.v1.gather/GatherV2/indices", "PartitionedCall/model_263/tf.compat.v1.gather/GatherV2/axis"], "attr": {"Tparams": {"type": "DT_INT64"}, "Taxis": {"type": "DT_INT32"}, "Tindices": {"type": "DT_INT32"}, "batch_dims": {"i": "0"}}}, {"name": "PartitionedCall/model_263/tf.reshape_259/Reshape", "op": "Reshape", "input": ["PartitionedCall/model_263/tf.compat.v1.gather/GatherV2", "PartitionedCall/model_263/tf.reshape_259/Reshape/shape"], "attr": {"T": {"type": "DT_INT64"}, "Tshape": {"type": "DT_INT32"}}}, {"name": "PartitionedCall/model_263/tf.math.multiply_37/Mul", "op": "Mul", "input": ["PartitionedCall/model_263/tf.compat.v1.gather/GatherV2", "PartitionedCall/model_263/tf.math.multiply_37/Mul/y"], "attr": {"T": {"type": "DT_INT64"}}}, {"name": "PartitionedCall/model_263/tf.cast_2/Cast", "op": "Cast", "input": ["PartitionedCall/model_263/tf.reshape_259/Reshape"], "attr": {"SrcT": {"type": "DT_INT64"}, "DstT": {"type": "DT_FLOAT"}, "Truncate": {"b": false}}}, {"name": "PartitionedCall/model_263/tf.math.add_65/Add", "op": "AddV2", "input": ["PartitionedCall/model_263/tf.compat.v1.gather_1/GatherV2", "PartitionedCall/model_263/tf.math.multiply_37/Mul"], "attr": {"T": {"type": "DT_INT64"}}}, {"name": "PartitionedCall/model_263/tf.math.less/Less", "op": "Less", "input": ["PartitionedCall/model_263/tf.math.add_65/Add", "PartitionedCall/model_263/tf.math.less/Less/y"], "attr": {"T": {"type": "DT_INT64"}}}, {"name": "PartitionedCall/model_263/tf.math.less_1/Less", "op": "Less", "input": ["PartitionedCall/model_263/tf.math.add_65/Add", "PartitionedCall/model_263/tf.math.less_1/Less/y"], "attr": {"T": {"type": "DT_INT64"}}}, {"name": "PartitionedCall/model_263/tf.math.less_2/Less", "op": "Less", "input": ["PartitionedCall/model_263/tf.math.add_65/Add", "PartitionedCall/model_263/tf.math.less_2/Less/y"], "attr": {"T": {"type": "DT_INT64"}}}, {"name": "PartitionedCall/model_263/tf.cast_3/Cast", "op": "Cast", "input": ["PartitionedCall/model_263/tf.math.less/Less"], "attr": {"SrcT": {"type": "DT_BOOL"}, "DstT": {"type": "DT_INT64"}, "Truncate": {"b": false}}}, {"name": "PartitionedCall/model_263/tf.cast_4/Cast", "op": "Cast", "input": ["PartitionedCall/model_263/tf.math.less_1/Less"], "attr": {"SrcT": {"type": "DT_BOOL"}, "DstT": {"type": "DT_INT64"}, "Truncate": {"b": false}}}, {"name": "PartitionedCall/model_263/tf.cast_5/Cast", "op": "Cast", "input": ["PartitionedCall/model_263/tf.math.less_2/Less"], "attr": {"SrcT": {"type": "DT_BOOL"}, "DstT": {"type": "DT_INT64"}, "Truncate": {"b": false}}}, {"name": "PartitionedCall/model_263/tf.math.multiply_40/Mul", "op": "Mul", "input": ["PartitionedCall/model_263/tf.cast_3/Cast", "PartitionedCall/model_263/tf.__operators__.getitem_3/strided_slice"], "attr": {"T": {"type": "DT_INT64"}}}, {"name": "PartitionedCall/model_263/tf.math.multiply_41/Mul", "op": "Mul", "input": ["PartitionedCall/model_263/tf.cast_4/Cast", "PartitionedCall/model_263/tf.__operators__.getitem_4/strided_slice"], "attr": {"T": {"type": "DT_INT64"}}}, {"name": "PartitionedCall/model_263/tf.math.multiply_42/Mul", "op": "Mul", "input": ["PartitionedCall/model_263/tf.cast_5/Cast", "PartitionedCall/model_263/tf.__operators__.getitem_5/strided_slice"], "attr": {"T": {"type": "DT_INT64"}}}, {"name": "PartitionedCall/model_263/tf.__operators__.add_2/AddV2", "op": "AddV2", "input": ["PartitionedCall/model_263/tf.math.add_65/Add", "PartitionedCall/model_263/tf.math.multiply_40/Mul"], "attr": {"T": {"type": "DT_INT64"}}}, {"name": "PartitionedCall/model_263/tf.__operators__.add_3/AddV2", "op": "AddV2", "input": ["PartitionedCall/model_263/tf.math.add_65/Add", "PartitionedCall/model_263/tf.math.multiply_41/Mul"], "attr": {"T": {"type": "DT_INT64"}}}, {"name": "PartitionedCall/model_263/tf.__operators__.add_4/AddV2", "op": "AddV2", "input": ["PartitionedCall/model_263/tf.math.add_65/Add", "PartitionedCall/model_263/tf.math.multiply_42/Mul"], "attr": {"T": {"type": "DT_INT64"}}}, {"name": "PartitionedCall/model_263/tf.compat.v1.gather_2/GatherV2", "op": "GatherV2", "input": ["PartitionedCall/model_263/tf.reshape_256/Reshape", "PartitionedCall/model_263/tf.__operators__.add_2/AddV2", "PartitionedCall/model_263/tf.compat.v1.gather_2/GatherV2/axis"], "attr": {"Tparams": {"type": "DT_FLOAT"}, "Taxis": {"type": "DT_INT32"}, "Tindices": {"type": "DT_INT64"}, "batch_dims": {"i": "0"}}}, {"name": "PartitionedCall/model_263/tf.compat.v1.gather_3/GatherV2", "op": "GatherV2", "input": ["PartitionedCall/model_263/tf.reshape_257/Reshape", "PartitionedCall/model_263/tf.__operators__.add_3/AddV2", "PartitionedCall/model_263/tf.compat.v1.gather_3/GatherV2/axis"], "attr": {"Tparams": {"type": "DT_INT64"}, "Taxis": {"type": "DT_INT32"}, "Tindices": {"type": "DT_INT64"}, "batch_dims": {"i": "0"}}}, {"name": "PartitionedCall/model_263/tf.compat.v1.gather_4/GatherV2", "op": "GatherV2", "input": ["PartitionedCall/model_263/tf.reshape_258/Reshape", "PartitionedCall/model_263/tf.__operators__.add_4/AddV2", "PartitionedCall/model_263/tf.compat.v1.gather_4/GatherV2/axis"], "attr": {"Tparams": {"type": "DT_FLOAT"}, "Taxis": {"type": "DT_INT32"}, "Tindices": {"type": "DT_INT64"}, "batch_dims": {"i": "0"}}}, {"name": "PartitionedCall/model_263/tf.cast_6/Cast", "op": "Cast", "input": ["PartitionedCall/model_263/tf.compat.v1.gather_3/GatherV2"], "attr": {"SrcT": {"type": "DT_INT64"}, "DstT": {"type": "DT_FLOAT"}, "Truncate": {"b": false}}}, {"name": "PartitionedCall/model_263/output/concat", "op": "ConcatV2", "input": ["PartitionedCall/model_263/tf.cast_2/Cast", "PartitionedCall/model_263/tf.compat.v1.gather_2/GatherV2", "PartitionedCall/model_263/tf.cast_6/Cast", "PartitionedCall/model_263/tf.compat.v1.gather_4/GatherV2", "PartitionedCall/model_263/output/concat/axis"], "attr": {"T": {"type": "DT_FLOAT"}, "N": {"i": "4"}, "Tidx": {"type": "DT_INT32"}}}, {"name": "Identity", "op": "Identity", "input": ["PartitionedCall/model_263/output/concat"], "attr": {"T": {"type": "DT_FLOAT"}}}], "library": {}, "versions": {"producer": 2129}}, "weightsManifest": [{"paths": ["group1-shard1of6.bin", "group1-shard2of6.bin", "group1-shard3of6.bin", "group1-shard4of6.bin", "group1-shard5of6.bin", "group1-shard6of6.bin"], "weights": [{"name": "PartitionedCall/model_263/tf.reshape_259/Reshape/shape", "shape": [2], "dtype": "int32"}, {"name": "PartitionedCall/model_263/tf.reshape_256/Reshape/shape", "shape": [2], "dtype": "int32"}, {"name": "PartitionedCall/model_263/tf.math.less/Less/y", "shape": [], "dtype": "int32"}, {"name": "PartitionedCall/model_263/tf.__operators__.getitem_3/strided_slice", "shape": [], "dtype": "int32"}, {"name": "PartitionedCall/model_263/tf.compat.v1.gather_2/GatherV2/axis", "shape": [], "dtype": "int32"}, {"name": "PartitionedCall/model_263/tf.reshape_257/Reshape/shape", "shape": [2], "dtype": "int32"}, {"name": "PartitionedCall/model_263/tf.math.less_1/Less/y", "shape": [], "dtype": "int32"}, {"name": "PartitionedCall/model_263/tf.__operators__.getitem_4/strided_slice", "shape": [], "dtype": "int32"}, {"name": "PartitionedCall/model_263/tf.compat.v1.gather_3/GatherV2/axis", "shape": [], "dtype": "int32"}, {"name": "PartitionedCall/model_263/tf.reshape_258/Reshape/shape", "shape": [2], "dtype": "int32"}, {"name": "PartitionedCall/model_263/tf.compat.v1.gather_1/GatherV2/indices", "shape": [], "dtype": "int32"}, {"name": "PartitionedCall/model_263/tf.compat.v1.gather_1/GatherV2/axis", "shape": [], "dtype": "int32"}, {"name": "unknown_129", "shape": [3], "dtype": "int32"}, {"name": "unknown_130", "shape": [3], "dtype": "int32"}, {"name": "PartitionedCall/model_263/tf.strided_slice/StridedSlice/strides", "shape": [3], "dtype": "int32"}, {"name": "unknown_131", "shape": [4, 4], "dtype": "float32"}, {"name": "PartitionedCall/model_263/tf.math.argmax/ArgMax/dimension", "shape": [], "dtype": "int32"}, {"name": "PartitionedCall/model_263/tf.expand_dims/ExpandDims/dim", "shape": [], "dtype": "int32"}, {"name": "PartitionedCall/model_263/tf.math.multiply_30/Mul/y", "shape": [], "dtype": "float32"}, {"name": "unknown_125", "shape": [3], "dtype": "int32"}, {"name": "unknown_126", "shape": [3], "dtype": "int32"}, {"name": "PartitionedCall/model_263/tf.strided_slice_2/StridedSlice/strides", "shape": [3], "dtype": "int32"}, {"name": "PartitionedCall/model_263/tf.math.multiply_2/Mul/y", "shape": [], "dtype": "float32"}, {"name": "unknown_123", "shape": [1, 1, 80, 80, 2], "dtype": "float32"}, {"name": "unknown_124", "shape": [1, 3, 1, 1, 2], "dtype": "float32"}, {"name": "unknown_109", "shape": [3, 3, 64, 128], "dtype": "float32"}, {"name": "unknown_112", "shape": [128], "dtype": "float32"}, {"name": "unknown_115", "shape": [1, 1, 128, 255], "dtype": "float32"}, {"name": "unknown_118", "shape": [255], "dtype": "float32"}, {"name": "PartitionedCall/model_263/tf.compat.v1.transpose_2/transpose/perm", "shape": [4], "dtype": "int32"}, {"name": "PartitionedCall/model_263/tf.reshape_2/Reshape/shape", "shape": [5], "dtype": "int32"}, {"name": "PartitionedCall/model_263/tf.compat.v1.transpose_5/transpose/perm", "shape": [5], "dtype": "int32"}, {"name": "PartitionedCall/model_263/tf.split/Const", "shape": [3], "dtype": "int32"}, {"name": "PartitionedCall/model_263/tf.split/split/split_dim", "shape": [], "dtype": "int32"}, {"name": "PartitionedCall/model_263/tf.concat_12/concat/axis", "shape": [], "dtype": "int32"}, {"name": "PartitionedCall/model_263/tf.reshape_5/Reshape/shape", "shape": [3], "dtype": "int32"}, {"name": "PartitionedCall/model_263/tf.math.multiply_10/Mul/y", "shape": [], "dtype": "float32"}, {"name": "unknown_121", "shape": [1, 1, 40, 40, 2], "dtype": "float32"}, {"name": "unknown_122", "shape": [1, 3, 1, 1, 2], "dtype": "float32"}, {"name": "unknown_108", "shape": [3, 3, 128, 256], "dtype": "float32"}, {"name": "unknown_111", "shape": [256], "dtype": "float32"}, {"name": "unknown_114", "shape": [1, 1, 256, 255], "dtype": "float32"}, {"name": "unknown_117", "shape": [255], "dtype": "float32"}, {"name": "PartitionedCall/model_263/tf.compat.v1.transpose_15/transpose/perm", "shape": [4], "dtype": "int32"}, {"name": "PartitionedCall/model_263/tf.reshape_8/Reshape/shape", "shape": [5], "dtype": "int32"}, {"name": "PartitionedCall/model_263/tf.compat.v1.transpose_18/transpose/perm", "shape": [5], "dtype": "int32"}, {"name": "PartitionedCall/model_263/tf.split_1/Const", "shape": [3], "dtype": "int32"}, {"name": "PartitionedCall/model_263/tf.split_1/split/split_dim", "shape": [], "dtype": "int32"}, {"name": "PartitionedCall/model_263/tf.concat_15/concat/axis", "shape": [], "dtype": "int32"}, {"name": "PartitionedCall/model_263/tf.reshape_130/Reshape/shape", "shape": [3], "dtype": "int32"}, {"name": "PartitionedCall/model_263/tf.math.multiply_18/Mul/y", "shape": [], "dtype": "float32"}, {"name": "unknown_119", "shape": [1, 1, 20, 20, 2], "dtype": "float32"}, {"name": "unknown_120", "shape": [1, 3, 1, 1, 2], "dtype": "float32"}, {"name": "unknown_102", "shape": [3, 3, 128, 128], "dtype": "float32"}, {"name": "unknown_104", "shape": [128], "dtype": "float32"}, {"name": "unknown_99", "shape": [3, 3, 128, 128], "dtype": "float32"}, {"name": "unknown_100", "shape": [128], "dtype": "float32"}, {"name": "unknown_97", "shape": [1, 1, 512, 128], "dtype": "float32"}, {"name": "unknown_98", "shape": [128], "dtype": "float32"}, {"name": "unknown_89", "shape": [3, 3, 64, 64], "dtype": "float32"}, {"name": "unknown_91", "shape": [64], "dtype": "float32"}, {"name": "unknown_86", "shape": [3, 3, 64, 64], "dtype": "float32"}, {"name": "unknown_87", "shape": [64], "dtype": "float32"}, {"name": "unknown_84", "shape": [1, 1, 256, 64], "dtype": "float32"}, {"name": "unknown_85", "shape": [64], "dtype": "float32"}, {"name": "unknown_76", "shape": [3, 3, 32, 32], "dtype": "float32"}, {"name": "unknown_78", "shape": [32], "dtype": "float32"}, {"name": "unknown_73", "shape": [3, 3, 32, 32], "dtype": "float32"}, {"name": "unknown_74", "shape": [32], "dtype": "float32"}, {"name": "unknown_71", "shape": [1, 1, 128, 32], "dtype": "float32"}, {"name": "unknown_72", "shape": [32], "dtype": "float32"}, {"name": "unknown_69", "shape": [1, 1, 128, 64], "dtype": "float32"}, {"name": "unknown_70", "shape": [64], "dtype": "float32"}, {"name": "unknown_67", "shape": [1, 1, 128, 64], "dtype": "float32"}, {"name": "unknown_68", "shape": [64], "dtype": "float32"}, {"name": "PartitionedCall/model_263/tf.compat.v1.image.resize_nearest_neighbor_1/ResizeNearestNeighbor/size", "shape": [2], "dtype": "int32"}, {"name": "PartitionedCall/model_263/tf.concat_8/concat/axis", "shape": [], "dtype": "int32"}, {"name": "unknown_75", "shape": [1, 1, 128, 32], "dtype": "float32"}, {"name": "unknown_77", "shape": [32], "dtype": "float32"}, {"name": "PartitionedCall/model_263/tf.concat_9/concat/axis", "shape": [], "dtype": "int32"}, {"name": "unknown_79", "shape": [1, 1, 128, 64], "dtype": "float32"}, {"name": "unknown_80", "shape": [64], "dtype": "float32"}, {"name": "unknown_81", "shape": [4, 2], "dtype": "int32"}, {"name": "unknown_82", "shape": [3, 3, 64, 128], "dtype": "float32"}, {"name": "unknown_83", "shape": [128], "dtype": "float32"}, {"name": "unknown_62", "shape": [3, 3, 64, 64], "dtype": "float32"}, {"name": "unknown_64", "shape": [64], "dtype": "float32"}, {"name": "unknown_59", "shape": [3, 3, 64, 64], "dtype": "float32"}, {"name": "unknown_60", "shape": [64], "dtype": "float32"}, {"name": "unknown_57", "shape": [1, 1, 256, 64], "dtype": "float32"}, {"name": "unknown_58", "shape": [64], "dtype": "float32"}, {"name": "unknown_55", "shape": [1, 1, 256, 128], "dtype": "float32"}, {"name": "unknown_56", "shape": [128], "dtype": "float32"}, {"name": "unknown_53", "shape": [1, 1, 256, 128], "dtype": "float32"}, {"name": "unknown_54", "shape": [128], "dtype": "float32"}, {"name": "PartitionedCall/model_263/tf.compat.v1.image.resize_nearest_neighbor/ResizeNearestNeighbor/size", "shape": [2], "dtype": "int32"}, {"name": "PartitionedCall/model_263/tf.concat_6/concat/axis", "shape": [], "dtype": "int32"}, {"name": "unknown_61", "shape": [1, 1, 256, 64], "dtype": "float32"}, {"name": "unknown_63", "shape": [64], "dtype": "float32"}, {"name": "PartitionedCall/model_263/tf.concat_7/concat/axis", "shape": [], "dtype": "int32"}, {"name": "unknown_65", "shape": [1, 1, 256, 128], "dtype": "float32"}, {"name": "unknown_66", "shape": [128], "dtype": "float32"}, {"name": "PartitionedCall/model_263/tf.concat_10/concat/axis", "shape": [], "dtype": "int32"}, {"name": "unknown_88", "shape": [1, 1, 256, 64], "dtype": "float32"}, {"name": "unknown_90", "shape": [64], "dtype": "float32"}, {"name": "PartitionedCall/model_263/tf.concat_11/concat/axis", "shape": [], "dtype": "int32"}, {"name": "unknown_92", "shape": [1, 1, 256, 128], "dtype": "float32"}, {"name": "unknown_93", "shape": [128], "dtype": "float32"}, {"name": "unknown_94", "shape": [4, 2], "dtype": "int32"}, {"name": "unknown_95", "shape": [3, 3, 128, 256], "dtype": "float32"}, {"name": "unknown_96", "shape": [256], "dtype": "float32"}, {"name": "unknown_45", "shape": [1, 1, 512, 256], "dtype": "float32"}, {"name": "unknown_46", "shape": [256], "dtype": "float32"}, {"name": "PartitionedCall/model_263/tf.concat_4/concat/axis", "shape": [], "dtype": "int32"}, {"name": "unknown_48", "shape": [1, 1, 1024, 256], "dtype": "float32"}, {"name": "unknown_50", "shape": [256], "dtype": "float32"}, {"name": "unknown_40", "shape": [3, 3, 256, 256], "dtype": "float32"}, {"name": "unknown_42", "shape": [256], "dtype": "float32"}, {"name": "unknown_37", "shape": [3, 3, 256, 256], "dtype": "float32"}, {"name": "unknown_38", "shape": [256], "dtype": "float32"}, {"name": "unknown_35", "shape": [1, 1, 256, 256], "dtype": "float32"}, {"name": "unknown_36", "shape": [256], "dtype": "float32"}, {"name": "unknown_30", "shape": [3, 3, 128, 128], "dtype": "float32"}, {"name": "unknown_32", "shape": [128], "dtype": "float32"}, {"name": "unknown_27", "shape": [3, 3, 128, 128], "dtype": "float32"}, {"name": "unknown_28", "shape": [128], "dtype": "float32"}, {"name": "unknown_25", "shape": [1, 1, 128, 128], "dtype": "float32"}, {"name": "unknown_26", "shape": [128], "dtype": "float32"}, {"name": "unknown_20", "shape": [3, 3, 64, 64], "dtype": "float32"}, {"name": "unknown_22", "shape": [64], "dtype": "float32"}, {"name": "unknown_17", "shape": [3, 3, 64, 64], "dtype": "float32"}, {"name": "unknown_18", "shape": [64], "dtype": "float32"}, {"name": "unknown_15", "shape": [1, 1, 64, 64], "dtype": "float32"}, {"name": "unknown_16", "shape": [64], "dtype": "float32"}, {"name": "unknown_10", "shape": [3, 3, 32, 32], "dtype": "float32"}, {"name": "unknown_12", "shape": [32], "dtype": "float32"}, {"name": "unknown_7", "shape": [3, 3, 32, 32], "dtype": "float32"}, {"name": "unknown_8", "shape": [32], "dtype": "float32"}, {"name": "unknown_5", "shape": [1, 1, 64, 32], "dtype": "float32"}, {"name": "unknown_6", "shape": [32], "dtype": "float32"}, {"name": "unknown", "shape": [4, 2], "dtype": "int32"}, {"name": "unknown_0", "shape": [3, 3, 3, 32], "dtype": "float32"}, {"name": "unknown_1", "shape": [32], "dtype": "float32"}, {"name": "unknown_2", "shape": [4, 2], "dtype": "int32"}, {"name": "unknown_3", "shape": [3, 3, 32, 64], "dtype": "float32"}, {"name": "unknown_4", "shape": [64], "dtype": "float32"}, {"name": "unknown_9", "shape": [1, 1, 64, 32], "dtype": "float32"}, {"name": "unknown_11", "shape": [32], "dtype": "float32"}, {"name": "PartitionedCall/model_263/tf.concat/concat/axis", "shape": [], "dtype": "int32"}, {"name": "unknown_13", "shape": [1, 1, 128, 64], "dtype": "float32"}, {"name": "unknown_14", "shape": [64], "dtype": "float32"}, {"name": "unknown_19", "shape": [1, 1, 64, 64], "dtype": "float32"}, {"name": "unknown_21", "shape": [64], "dtype": "float32"}, {"name": "PartitionedCall/model_263/tf.concat_1/concat/axis", "shape": [], "dtype": "int32"}, {"name": "unknown_23", "shape": [1, 1, 256, 128], "dtype": "float32"}, {"name": "unknown_24", "shape": [128], "dtype": "float32"}, {"name": "unknown_29", "shape": [1, 1, 128, 128], "dtype": "float32"}, {"name": "unknown_31", "shape": [128], "dtype": "float32"}, {"name": "PartitionedCall/model_263/tf.concat_2/concat/axis", "shape": [], "dtype": "int32"}, {"name": "unknown_33", "shape": [1, 1, 512, 256], "dtype": "float32"}, {"name": "unknown_34", "shape": [256], "dtype": "float32"}, {"name": "unknown_39", "shape": [1, 1, 256, 256], "dtype": "float32"}, {"name": "unknown_41", "shape": [256], "dtype": "float32"}, {"name": "PartitionedCall/model_263/tf.concat_3/concat/axis", "shape": [], "dtype": "int32"}, {"name": "unknown_43", "shape": [1, 1, 1024, 512], "dtype": "float32"}, {"name": "unknown_44", "shape": [512], "dtype": "float32"}, {"name": "unknown_47", "shape": [1, 1, 512, 256], "dtype": "float32"}, {"name": "unknown_49", "shape": [256], "dtype": "float32"}, {"name": "PartitionedCall/model_263/tf.concat_5/concat/axis", "shape": [], "dtype": "int32"}, {"name": "unknown_51", "shape": [1, 1, 512, 256], "dtype": "float32"}, {"name": "unknown_52", "shape": [256], "dtype": "float32"}, {"name": "PartitionedCall/model_263/tf.concat_13/concat/axis", "shape": [], "dtype": "int32"}, {"name": "unknown_101", "shape": [1, 1, 512, 128], "dtype": "float32"}, {"name": "unknown_103", "shape": [128], "dtype": "float32"}, {"name": "PartitionedCall/model_263/tf.concat_14/concat/axis", "shape": [], "dtype": "int32"}, {"name": "unknown_105", "shape": [1, 1, 512, 256], "dtype": "float32"}, {"name": "unknown_106", "shape": [256], "dtype": "float32"}, {"name": "unknown_107", "shape": [3, 3, 256, 512], "dtype": "float32"}, {"name": "unknown_110", "shape": [512], "dtype": "float32"}, {"name": "unknown_113", "shape": [1, 1, 512, 255], "dtype": "float32"}, {"name": "unknown_116", "shape": [255], "dtype": "float32"}, {"name": "PartitionedCall/model_263/tf.compat.v1.transpose_147/transpose/perm", "shape": [4], "dtype": "int32"}, {"name": "PartitionedCall/model_263/tf.reshape_133/Reshape/shape", "shape": [5], "dtype": "int32"}, {"name": "PartitionedCall/model_263/tf.compat.v1.transpose_150/transpose/perm", "shape": [5], "dtype": "int32"}, {"name": "PartitionedCall/model_263/tf.split_2/Const", "shape": [3], "dtype": "int32"}, {"name": "PartitionedCall/model_263/tf.split_2/split/split_dim", "shape": [], "dtype": "int32"}, {"name": "PartitionedCall/model_263/tf.concat_16/concat/axis", "shape": [], "dtype": "int32"}, {"name": "PartitionedCall/model_263/tf.reshape_255/Reshape/shape", "shape": [3], "dtype": "int32"}, {"name": "PartitionedCall/model_263/tf.concat_17/concat/axis", "shape": [], "dtype": "int32"}, {"name": "unknown_127", "shape": [3], "dtype": "int32"}, {"name": "unknown_128", "shape": [3], "dtype": "int32"}, {"name": "PartitionedCall/model_263/tf.strided_slice_1/StridedSlice/strides", "shape": [3], "dtype": "int32"}, {"name": "PartitionedCall/model_263/tf.math.reduce_max_1/Max/reduction_indices", "shape": [1], "dtype": "int32"}, {"name": "PartitionedCall/model_263/tf.compat.v1.transpose_277/transpose/perm", "shape": [3], "dtype": "int32"}, {"name": "PartitionedCall/model_263/tf.compat.v1.squeeze_7/Squeeze", "shape": [], "dtype": "int32"}, {"name": "unknown_139", "shape": [], "dtype": "float32"}, {"name": "unknown_140", "shape": [], "dtype": "float32"}, {"name": "PartitionedCall/model_263/tf.compat.v1.transpose_278/transpose/perm", "shape": [2], "dtype": "int32"}, {"name": "unknown_142", "shape": [], "dtype": "int32"}, {"name": "unknown_141", "shape": [2, 2], "dtype": "int32"}, {"name": "unknown_143", "shape": [], "dtype": "int32"}, {"name": "PartitionedCall/model_263/tf.compat.v1.gather/GatherV2/indices", "shape": [], "dtype": "int32"}, {"name": "PartitionedCall/model_263/tf.compat.v1.gather/GatherV2/axis", "shape": [], "dtype": "int32"}, {"name": "PartitionedCall/model_263/tf.math.multiply_37/Mul/y", "shape": [1], "dtype": "int32"}, {"name": "PartitionedCall/model_263/tf.math.less_2/Less/y", "shape": [], "dtype": "int32"}, {"name": "PartitionedCall/model_263/tf.__operators__.getitem_5/strided_slice", "shape": [], "dtype": "int32"}, {"name": "PartitionedCall/model_263/tf.compat.v1.gather_4/GatherV2/axis", "shape": [], "dtype": "int32"}, {"name": "PartitionedCall/model_263/output/concat/axis", "shape": [], "dtype": "int32"}, {"name": "ConstantFolding/PartitionedCall/model_263/tf.compat.v1.transpose_278/transpose/a_const_axis", "shape": [], "dtype": "int32"}]}]}